MLIR Textual PassPipeline Parser:1:1: error: 'iree-sa16-identify-offload-target' does not refer to a registered pass or pass pipeline
iree-sa16-identify-offload-target
^
mobilenetv2_flow.mlir:1:1: error: no HAL target devices specified on the module (available = [ 'cuda' 'llvm-cpu' 'metal' 'metal-spirv' 'vmvx' 'vmvx-inline' 'vulkan' 'vulkan-spirv' ])
module {
^
mobilenetv2_flow.mlir:1:1: note: see current operation: 
"builtin.module"() ({
  "util.global"() {initial_value = #stream.timepoint<immediate> : !stream.timepoint, is_mutable, sym_name = "_constant__timepoint", sym_visibility = "private", type = !stream.timepoint} : () -> ()
  "util.global"() {sym_name = "_constant", sym_visibility = "private", type = !stream.resource<constant>} : () -> ()
  "util.initializer"() ({
    %0 = "stream.timepoint.immediate"() : () -> !stream.timepoint
    %1 = "arith.constant"() {value = 13954496 : index} : () -> index
    %2 = "arith.constant"() {value = 0 : index} : () -> index
    %3 = "util.buffer.constant"() {alignment = 64 : index, value = #util.composite<13954496xi8, [
    dense_resource<__elided__> : tensor<1x1001xf32>,
    dense<0> : vector<28xi8>,
    dense_resource<__elided__> : tensor<3x3x32xf32>,
    dense_resource<__elided__> : tensor<3x3x96xf32>,
    dense_resource<__elided__> : tensor<3x3x144xf32>,
    dense_resource<__elided__> : tensor<3x3x144xf32>,
    dense_resource<__elided__> : tensor<3x3x192xf32>,
    dense_resource<__elided__> : tensor<3x3x192xf32>,
    dense_resource<__elided__> : tensor<3x3x192xf32>,
    dense_resource<__elided__> : tensor<3x3x384xf32>,
    dense_resource<__elided__> : tensor<3x3x384xf32>,
    dense_resource<__elided__> : tensor<3x3x384xf32>,
    dense_resource<__elided__> : tensor<3x3x384xf32>,
    dense_resource<__elided__> : tensor<3x3x576xf32>,
    dense_resource<__elided__> : tensor<3x3x576xf32>,
    dense_resource<__elided__> : tensor<3x3x576xf32>,
    dense_resource<__elided__> : tensor<3x3x960xf32>,
    dense_resource<__elided__> : tensor<3x3x960xf32>,
    dense_resource<__elided__> : tensor<3x3x960xf32>,
    dense_resource<__elided__> : tensor<1280xf32>,
    dense_resource<__elided__> : tensor<320xf32>,
    dense_resource<__elided__> : tensor<960xf32>,
    dense_resource<__elided__> : tensor<960xf32>,
    dense_resource<__elided__> : tensor<160xf32>,
    dense_resource<__elided__> : tensor<960xf32>,
    dense_resource<__elided__> : tensor<960xf32>,
    dense_resource<__elided__> : tensor<160xf32>,
    dense_resource<__elided__> : tensor<960xf32>,
    dense_resource<__elided__> : tensor<960xf32>,
    dense_resource<__elided__> : tensor<160xf32>,
    dense_resource<__elided__> : tensor<576xf32>,
    dense_resource<__elided__> : tensor<576xf32>,
    dense_resource<__elided__> : tensor<96xf32>,
    dense_resource<__elided__> : tensor<576xf32>,
    dense_resource<__elided__> : tensor<576xf32>,
    dense_resource<__elided__> : tensor<96xf32>,
    dense_resource<__elided__> : tensor<576xf32>,
    dense_resource<__elided__> : tensor<576xf32>,
    dense_resource<__elided__> : tensor<96xf32>,
    dense_resource<__elided__> : tensor<384xf32>,
    dense_resource<__elided__> : tensor<384xf32>,
    dense_resource<__elided__> : tensor<384xf32>,
    dense_resource<__elided__> : tensor<384xf32>,
    dense_resource<__elided__> : tensor<384xf32>,
    dense_resource<__elided__> : tensor<384xf32>,
    dense_resource<__elided__> : tensor<384xf32>,
    dense_resource<__elided__> : tensor<384xf32>,
    dense_resource<__elided__> : tensor<192xf32>,
    dense_resource<__elided__> : tensor<192xf32>,
    dense_resource<__elided__> : tensor<192xf32>,
    dense_resource<__elided__> : tensor<192xf32>,
    dense_resource<__elided__> : tensor<192xf32>,
    dense_resource<__elided__> : tensor<192xf32>,
    dense_resource<__elided__> : tensor<144xf32>,
    dense_resource<__elided__> : tensor<144xf32>,
    dense_resource<__elided__> : tensor<144xf32>,
    dense_resource<__elided__> : tensor<144xf32>,
    dense_resource<__elided__> : tensor<96xf32>,
    dense_resource<__elided__> : tensor<96xf32>,
    dense_resource<__elided__> : tensor<1280x1001xf32>,
    dense_resource<__elided__> : tensor<320x1280xf32>,
    dense_resource<__elided__> : tensor<960x320xf32>,
    dense_resource<__elided__> : tensor<160x960xf32>,
    dense_resource<__elided__> : tensor<960x160xf32>,
    dense_resource<__elided__> : tensor<160x960xf32>,
    dense_resource<__elided__> : tensor<960x160xf32>,
    dense_resource<__elided__> : tensor<160x960xf32>,
    dense_resource<__elided__> : tensor<576x160xf32>,
    dense_resource<__elided__> : tensor<96x576xf32>,
    dense_resource<__elided__> : tensor<576x96xf32>,
    dense_resource<__elided__> : tensor<96x576xf32>,
    dense_resource<__elided__> : tensor<576x96xf32>,
    dense_resource<__elided__> : tensor<96x576xf32>,
    dense_resource<__elided__> : tensor<384x96xf32>,
    dense_resource<__elided__> : tensor<64x384xf32>,
    dense_resource<__elided__> : tensor<384x64xf32>,
    dense_resource<__elided__> : tensor<64x384xf32>,
    dense_resource<__elided__> : tensor<384x64xf32>,
    dense_resource<__elided__> : tensor<64x384xf32>,
    dense_resource<__elided__> : tensor<384x64xf32>,
    dense_resource<__elided__> : tensor<64x384xf32>,
    dense_resource<__elided__> : tensor<192x64xf32>,
    dense_resource<__elided__> : tensor<32x192xf32>,
    dense_resource<__elided__> : tensor<192x32xf32>,
    dense_resource<__elided__> : tensor<32x192xf32>,
    dense_resource<__elided__> : tensor<192x32xf32>,
    dense_resource<__elided__> : tensor<32x192xf32>,
    dense_resource<__elided__> : tensor<144x32xf32>,
    dense_resource<__elided__> : tensor<24x144xf32>,
    dense_resource<__elided__> : tensor<144x24xf32>,
    dense_resource<__elided__> : tensor<24x144xf32>,
    dense_resource<__elided__> : tensor<96x24xf32>,
    dense_resource<__elided__> : tensor<16x96xf32>,
    dense_resource<__elided__> : tensor<32x16xf32>,
    dense_resource<__elided__> : tensor<3x3x3x32xf32>,
]>} : () -> !util.buffer
    %4:2 = "stream.resource.try_map"(%3, %2, %1) : (!util.buffer, index, index) -> (i1, !stream.resource<constant>)
    "cf.cond_br"(%4#0, %4#1, %0)[^bb2, ^bb1] {operand_segment_sizes = array<i32: 1, 2, 0>} : (i1, !stream.resource<constant>, !stream.timepoint) -> ()
  ^bb1:  // pred: ^bb0
    %5 = "stream.resource.map"(%3, %2, %1) : (!util.buffer, index, index) -> !stream.resource<staging>
    %6 = "stream.resource.alloc"(%1) {uninitialized} : (index) -> !stream.resource<constant>
    %7 = "stream.cmd.execute"(%5, %6, %1, %1) ({
    ^bb0(%arg0: !stream.resource<staging>, %arg1: !stream.resource<constant>):
      "stream.cmd.copy"(%arg0, %1, %2, %arg1, %1, %2, %1) : (!stream.resource<staging>, index, index, !stream.resource<constant>, index, index, index) -> ()
      "stream.yield"() : () -> ()
    }) {operand_segment_sizes = array<i32: 2, 2, 0>} : (!stream.resource<staging>, !stream.resource<constant>, index, index) -> !stream.timepoint
    "cf.br"(%6, %7)[^bb2] : (!stream.resource<constant>, !stream.timepoint) -> ()
  ^bb2(%8: !stream.resource<constant>, %9: !stream.timepoint):  // 2 preds: ^bb0, ^bb1
    "util.global.store"(%8) {global = @_constant} : (!stream.resource<constant>) -> ()
    "util.global.store"(%9) {global = @_constant__timepoint} : (!stream.timepoint) -> ()
    "util.initializer.return"() : () -> ()
  }) {function_type = () -> ()} : () -> ()
  "stream.executable"() ({
    "stream.executable.export"() ({
    ^bb0(%arg0: index, %arg1: index, %arg2: index):
      %0:3 = "flow.dispatch.workgroup_count_from_dag_root"(%arg0, %arg1, %arg2) : (index, index, index) -> (index, index, index)
      "stream.return"(%0#0, %0#1, %0#2) : (index, index, index) -> ()
    }) {function_ref = @main_dispatch_0, sym_name = "main_dispatch_0"} : () -> ()
    "builtin.module"() ({
      "func.func"() ({
      ^bb0(%arg0: !stream.binding, %arg1: !stream.binding):
        %0 = "arith.constant"() {value = 0 : index} : () -> index
        %1 = "stream.binding.subspan"(%arg0, %0) : (!stream.binding, index) -> !flow.dispatch.tensor<readonly:tensor<224x224x3xf32>>
        %2 = "stream.binding.subspan"(%arg1, %0) : (!stream.binding, index) -> !flow.dispatch.tensor<readwrite:tensor<1x225x225x3xf32>>
        %3 = "flow.dispatch.tensor.load"(%1) {operand_segment_sizes = array<i32: 1, 0, 0, 0, 0>, static_offsets = array<i64: 0, 0, 0>, static_sizes = array<i64: 224, 224, 3>, static_strides = array<i64: 1, 1, 1>} : (!flow.dispatch.tensor<readonly:tensor<224x224x3xf32>>) -> tensor<224x224x3xf32>
        "flow.dispatch.tensor.store"(%3, %2) {operand_segment_sizes = array<i32: 1, 1, 0, 0, 0, 0>, static_offsets = array<i64: 0, 0, 0, 0>, static_sizes = array<i64: 1, 224, 224, 3>, static_strides = array<i64: 1, 1, 1, 1>} : (tensor<224x224x3xf32>, !flow.dispatch.tensor<readwrite:tensor<1x225x225x3xf32>>) -> ()
        "func.return"() : () -> ()
      }) {arg_attrs = [{stream.alignment = 64 : index}, {stream.alignment = 64 : index}], function_type = (!stream.binding, !stream.binding) -> (), sym_name = "main_dispatch_0"} : () -> ()
    }) : () -> ()
    "stream.executable.end"() : () -> ()
  }) {sym_name = "main_dispatch_0", sym_visibility = "private"} : () -> ()
  "stream.executable"() ({
    "stream.executable.export"() ({
    ^bb0(%arg0: index, %arg1: index, %arg2: index, %arg3: index):
      %0:3 = "flow.dispatch.workgroup_count_from_dag_root"(%arg0, %arg1, %arg2, %arg3) : (index, index, index, index) -> (index, index, index)
      "stream.return"(%0#0, %0#1, %0#2) : (index, index, index) -> ()
    }) {function_ref = @main_dispatch_1_conv_2d_nhwc_hwcf_1x112x112x32x3x3x3, sym_name = "main_dispatch_1_conv_2d_nhwc_hwcf_1x112x112x32x3x3x3"} : () -> ()
    "builtin.module"() ({
      "func.func"() ({
      ^bb0(%arg0: !stream.binding, %arg1: !stream.binding, %arg2: !stream.binding):
        %0 = "arith.constant"() {value = 0 : index} : () -> index
        %1 = "arith.constant"() {value = 13951040 : index} : () -> index
        %2 = "arith.constant"() {value = 607552 : index} : () -> index
        %3 = "arith.constant"() {value = 6.000000e+00 : f32} : () -> f32
        %4 = "arith.constant"() {value = 0.000000e+00 : f32} : () -> f32
        %5 = "arith.constant"() {value = dense_resource<__elided__> : tensor<32xf32>} : () -> tensor<32xf32>
        %6 = "stream.binding.subspan"(%arg0, %0) : (!stream.binding, index) -> !flow.dispatch.tensor<readonly:tensor<1x225x225x3xf32>>
        %7 = "stream.binding.subspan"(%arg1, %1) : (!stream.binding, index) -> !flow.dispatch.tensor<readonly:tensor<3x3x3x32xf32>>
        %8 = "stream.binding.subspan"(%arg2, %2) : (!stream.binding, index) -> !flow.dispatch.tensor<writeonly:tensor<1x112x112x32xf32>>
        %9 = "flow.dispatch.tensor.load"(%6) {operand_segment_sizes = array<i32: 1, 0, 0, 0, 0>, static_offsets = array<i64: 0, 0, 0, 0>, static_sizes = array<i64: 1, 225, 225, 3>, static_strides = array<i64: 1, 1, 1, 1>} : (!flow.dispatch.tensor<readonly:tensor<1x225x225x3xf32>>) -> tensor<1x225x225x3xf32>
        %10 = "flow.dispatch.tensor.load"(%7) {operand_segment_sizes = array<i32: 1, 0, 0, 0, 0>, static_offsets = array<i64: 0, 0, 0, 0>, static_sizes = array<i64: 3, 3, 3, 32>, static_strides = array<i64: 1, 1, 1, 1>} : (!flow.dispatch.tensor<readonly:tensor<3x3x3x32xf32>>) -> tensor<3x3x3x32xf32>
        %11 = "tensor.empty"() : () -> tensor<1x112x112x32xf32>
        %12 = "linalg.fill"(%4, %11) ({
        ^bb0(%arg3: f32, %arg4: f32):
          "linalg.yield"(%arg3) : (f32) -> ()
        }) {operand_segment_sizes = array<i32: 1, 1>} : (f32, tensor<1x112x112x32xf32>) -> tensor<1x112x112x32xf32>
        %13 = "linalg.conv_2d_nhwc_hwcf"(%9, %10, %12) ({
        ^bb0(%arg3: f32, %arg4: f32, %arg5: f32):
          %15 = "arith.mulf"(%arg3, %arg4) {fastmath = #arith.fastmath<none>} : (f32, f32) -> f32
          %16 = "arith.addf"(%arg5, %15) {fastmath = #arith.fastmath<none>} : (f32, f32) -> f32
          "linalg.yield"(%16) : (f32) -> ()
        }) {dilations = dense<1> : tensor<2xi64>, linalg.memoized_indexing_maps = [affine_map<(d0, d1, d2, d3, d4, d5, d6) -> (d0, d1 * 2 + d4, d2 * 2 + d5, d6)>, affine_map<(d0, d1, d2, d3, d4, d5, d6) -> (d4, d5, d6, d3)>, affine_map<(d0, d1, d2, d3, d4, d5, d6) -> (d0, d1, d2, d3)>], operand_segment_sizes = array<i32: 2, 1>, strides = dense<2> : tensor<2xi64>} : (tensor<1x225x225x3xf32>, tensor<3x3x3x32xf32>, tensor<1x112x112x32xf32>) -> tensor<1x112x112x32xf32>
        %14 = "linalg.generic"(%5, %13, %11) ({
        ^bb0(%arg3: f32, %arg4: f32, %arg5: f32):
          %15 = "arith.addf"(%arg3, %arg4) {fastmath = #arith.fastmath<none>} : (f32, f32) -> f32
          %16 = "arith.minf"(%15, %3) {fastmath = #arith.fastmath<none>} : (f32, f32) -> f32
          %17 = "arith.maxf"(%16, %4) {fastmath = #arith.fastmath<none>} : (f32, f32) -> f32
          "linalg.yield"(%17) : (f32) -> ()
        }) {indexing_maps = [affine_map<(d0, d1, d2, d3) -> (d3)>, affine_map<(d0, d1, d2, d3) -> (d0, d1, d2, d3)>, affine_map<(d0, d1, d2, d3) -> (d0, d1, d2, d3)>], iterator_types = [#linalg.iterator_type<parallel>, #linalg.iterator_type<parallel>, #linalg.iterator_type<parallel>, #linalg.iterator_type<parallel>], operand_segment_sizes = array<i32: 2, 1>} : (tensor<32xf32>, tensor<1x112x112x32xf32>, tensor<1x112x112x32xf32>) -> tensor<1x112x112x32xf32>
        "flow.dispatch.tensor.store"(%14, %8) {operand_segment_sizes = array<i32: 1, 1, 0, 0, 0, 0>, static_offsets = array<i64: 0, 0, 0, 0>, static_sizes = array<i64: 1, 112, 112, 32>, static_strides = array<i64: 1, 1, 1, 1>} : (tensor<1x112x112x32xf32>, !flow.dispatch.tensor<writeonly:tensor<1x112x112x32xf32>>) -> ()
        "func.return"() : () -> ()
      }) {arg_attrs = [{stream.alignment = 64 : index}, {stream.alignment = 64 : index}, {stream.alignment = 64 : index}], function_type = (!stream.binding, !stream.binding, !stream.binding) -> (), sym_name = "main_dispatch_1_conv_2d_nhwc_hwcf_1x112x112x32x3x3x3"} : () -> ()
    }) : () -> ()
    "stream.executable.end"() : () -> ()
  }) {sym_name = "main_dispatch_1", sym_visibility = "private"} : () -> ()
  "stream.executable"() ({
    "stream.executable.export"() ({
    ^bb0(%arg0: index, %arg1: index, %arg2: index):
      %0:3 = "flow.dispatch.workgroup_count_from_dag_root"(%arg0, %arg1, %arg2) : (index, index, index) -> (index, index, index)
      "stream.return"(%0#0, %0#1, %0#2) : (index, index, index) -> ()
    }) {function_ref = @main_dispatch_2, sym_name = "main_dispatch_2"} : () -> ()
    "builtin.module"() ({
      "func.func"() ({
      ^bb0(%arg0: !stream.binding, %arg1: !stream.binding):
        %0 = "arith.constant"() {value = 607552 : index} : () -> index
        %1 = "arith.constant"() {value = 2213184 : index} : () -> index
        %2 = "stream.binding.subspan"(%arg0, %0) : (!stream.binding, index) -> !flow.dispatch.tensor<readonly:tensor<112x112x32xf32>>
        %3 = "stream.binding.subspan"(%arg1, %1) : (!stream.binding, index) -> !flow.dispatch.tensor<readwrite:tensor<1x114x114x32xf32>>
        %4 = "flow.dispatch.tensor.load"(%2) {operand_segment_sizes = array<i32: 1, 0, 0, 0, 0>, static_offsets = array<i64: 0, 0, 0>, static_sizes = array<i64: 112, 112, 32>, static_strides = array<i64: 1, 1, 1>} : (!flow.dispatch.tensor<readonly:tensor<112x112x32xf32>>) -> tensor<112x112x32xf32>
        "flow.dispatch.tensor.store"(%4, %3) {operand_segment_sizes = array<i32: 1, 1, 0, 0, 0, 0>, static_offsets = array<i64: 0, 1, 1, 0>, static_sizes = array<i64: 1, 112, 112, 32>, static_strides = array<i64: 1, 1, 1, 1>} : (tensor<112x112x32xf32>, !flow.dispatch.tensor<readwrite:tensor<1x114x114x32xf32>>) -> ()
        "func.return"() : () -> ()
      }) {arg_attrs = [{stream.alignment = 64 : index}, {stream.alignment = 64 : index}], function_type = (!stream.binding, !stream.binding) -> (), sym_name = "main_dispatch_2"} : () -> ()
    }) : () -> ()
    "stream.executable.end"() : () -> ()
  }) {sym_name = "main_dispatch_2", sym_visibility = "private"} : () -> ()
  "stream.executable"() ({
    "stream.executable.export"() ({
    ^bb0(%arg0: index, %arg1: index, %arg2: index, %arg3: index):
      %0:3 = "flow.dispatch.workgroup_count_from_dag_root"(%arg0, %arg1, %arg2, %arg3) : (index, index, index, index) -> (index, index, index)
      "stream.return"(%0#0, %0#1, %0#2) : (index, index, index) -> ()
    }) {function_ref = @main_dispatch_3_depthwise_conv_2d_nhwc_hwc_1x112x112x32x3x3, sym_name = "main_dispatch_3_depthwise_conv_2d_nhwc_hwc_1x112x112x32x3x3"} : () -> ()
    "builtin.module"() ({
      "func.func"() ({
      ^bb0(%arg0: !stream.binding, %arg1: !stream.binding, %arg2: !stream.binding):
        %0 = "arith.constant"() {value = 2213184 : index} : () -> index
        %1 = "arith.constant"() {value = 4032 : index} : () -> index
        %2 = "arith.constant"() {value = 0 : index} : () -> index
        %3 = "arith.constant"() {value = 6.000000e+00 : f32} : () -> f32
        %4 = "arith.constant"() {value = 0.000000e+00 : f32} : () -> f32
        %5 = "arith.constant"() {value = dense_resource<__elided__> : tensor<32xf32>} : () -> tensor<32xf32>
        %6 = "stream.binding.subspan"(%arg0, %0) : (!stream.binding, index) -> !flow.dispatch.tensor<readonly:tensor<1x114x114x32xf32>>
        %7 = "stream.binding.subspan"(%arg1, %1) : (!stream.binding, index) -> !flow.dispatch.tensor<readonly:tensor<3x3x32xf32>>
        %8 = "stream.binding.subspan"(%arg2, %2) : (!stream.binding, index) -> !flow.dispatch.tensor<writeonly:tensor<1x112x112x32xf32>>
        %9 = "flow.dispatch.tensor.load"(%6) {operand_segment_sizes = array<i32: 1, 0, 0, 0, 0>, static_offsets = array<i64: 0, 0, 0, 0>, static_sizes = array<i64: 1, 114, 114, 32>, static_strides = array<i64: 1, 1, 1, 1>} : (!flow.dispatch.tensor<readonly:tensor<1x114x114x32xf32>>) -> tensor<1x114x114x32xf32>
        %10 = "flow.dispatch.tensor.load"(%7) {operand_segment_sizes = array<i32: 1, 0, 0, 0, 0>, static_offsets = array<i64: 0, 0, 0>, static_sizes = array<i64: 3, 3, 32>, static_strides = array<i64: 1, 1, 1>} : (!flow.dispatch.tensor<readonly:tensor<3x3x32xf32>>) -> tensor<3x3x32xf32>
        %11 = "tensor.empty"() : () -> tensor<1x112x112x32xf32>
        %12 = "linalg.fill"(%4, %11) ({
        ^bb0(%arg3: f32, %arg4: f32):
          "linalg.yield"(%arg3) : (f32) -> ()
        }) {operand_segment_sizes = array<i32: 1, 1>} : (f32, tensor<1x112x112x32xf32>) -> tensor<1x112x112x32xf32>
        %13 = "linalg.depthwise_conv_2d_nhwc_hwc"(%9, %10, %12) ({
        ^bb0(%arg3: f32, %arg4: f32, %arg5: f32):
          %15 = "arith.mulf"(%arg3, %arg4) {fastmath = #arith.fastmath<none>} : (f32, f32) -> f32
          %16 = "arith.addf"(%arg5, %15) {fastmath = #arith.fastmath<none>} : (f32, f32) -> f32
          "linalg.yield"(%16) : (f32) -> ()
        }) {dilations = dense<1> : tensor<2xi64>, linalg.memoized_indexing_maps = [affine_map<(d0, d1, d2, d3, d4, d5) -> (d0, d1 + d4, d2 + d5, d3)>, affine_map<(d0, d1, d2, d3, d4, d5) -> (d4, d5, d3)>, affine_map<(d0, d1, d2, d3, d4, d5) -> (d0, d1, d2, d3)>], operand_segment_sizes = array<i32: 2, 1>, strides = dense<1> : tensor<2xi64>} : (tensor<1x114x114x32xf32>, tensor<3x3x32xf32>, tensor<1x112x112x32xf32>) -> tensor<1x112x112x32xf32>
        %14 = "linalg.generic"(%5, %13, %11) ({
        ^bb0(%arg3: f32, %arg4: f32, %arg5: f32):
          %15 = "arith.addf"(%arg3, %arg4) {fastmath = #arith.fastmath<none>} : (f32, f32) -> f32
          %16 = "arith.minf"(%15, %3) {fastmath = #arith.fastmath<none>} : (f32, f32) -> f32
          %17 = "arith.maxf"(%16, %4) {fastmath = #arith.fastmath<none>} : (f32, f32) -> f32
          "linalg.yield"(%17) : (f32) -> ()
        }) {indexing_maps = [affine_map<(d0, d1, d2, d3) -> (d3)>, affine_map<(d0, d1, d2, d3) -> (d0, d1, d2, d3)>, affine_map<(d0, d1, d2, d3) -> (d0, d1, d2, d3)>], iterator_types = [#linalg.iterator_type<parallel>, #linalg.iterator_type<parallel>, #linalg.iterator_type<parallel>, #linalg.iterator_type<parallel>], operand_segment_sizes = array<i32: 2, 1>} : (tensor<32xf32>, tensor<1x112x112x32xf32>, tensor<1x112x112x32xf32>) -> tensor<1x112x112x32xf32>
        "flow.dispatch.tensor.store"(%14, %8) {operand_segment_sizes = array<i32: 1, 1, 0, 0, 0, 0>, static_offsets = array<i64: 0, 0, 0, 0>, static_sizes = array<i64: 1, 112, 112, 32>, static_strides = array<i64: 1, 1, 1, 1>} : (tensor<1x112x112x32xf32>, !flow.dispatch.tensor<writeonly:tensor<1x112x112x32xf32>>) -> ()
        "func.return"() : () -> ()
      }) {arg_attrs = [{stream.alignment = 64 : index}, {stream.alignment = 64 : index}, {stream.alignment = 64 : index}], function_type = (!stream.binding, !stream.binding, !stream.binding) -> (), sym_name = "main_dispatch_3_depthwise_conv_2d_nhwc_hwc_1x112x112x32x3x3"} : () -> ()
    }) : () -> ()
    "stream.executable.end"() : () -> ()
  }) {sym_name = "main_dispatch_3", sym_visibility = "private"} : () -> ()
  "stream.executable"() ({
    "stream.executable.export"() ({
    ^bb0(%arg0: index, %arg1: index):
      %0:3 = "flow.dispatch.workgroup_count_from_dag_root"(%arg0, %arg1) : (index, index) -> (index, index, index)
      "stream.return"(%0#0, %0#1, %0#2) : (index, index, index) -> ()
    }) {function_ref = @main_dispatch_4_matmul_12544x16x32, sym_name = "main_dispatch_4_matmul_12544x16x32"} : () -> ()
    "builtin.module"() ({
      "func.func"() ({
      ^bb0(%arg0: !stream.binding, %arg1: !stream.binding, %arg2: !stream.binding):
        %0 = "arith.constant"() {value = 0 : index} : () -> index
        %1 = "arith.constant"() {value = 13948992 : index} : () -> index
        %2 = "arith.constant"() {value = 1605632 : index} : () -> index
        %3 = "arith.constant"() {value = 0.000000e+00 : f32} : () -> f32
        %4 = "arith.constant"() {value = dense<[… > : tensor<16xf32>} : () -> tensor<16xf32>
        %5 = "stream.binding.subspan"(%arg0, %0) : (!stream.binding, index) -> !flow.dispatch.tensor<readonly:tensor<12544x32xf32>>
        %6 = "stream.binding.subspan"(%arg1, %1) : (!stream.binding, index) -> !flow.dispatch.tensor<readonly:tensor<32x16xf32>>
        %7 = "stream.binding.subspan"(%arg2, %2) : (!stream.binding, index) -> !flow.dispatch.tensor<writeonly:tensor<12544x16xf32>>
        %8 = "flow.dispatch.tensor.load"(%5) {operand_segment_sizes = array<i32: 1, 0, 0, 0, 0>, static_offsets = array<i64: 0, 0>, static_sizes = array<i64: 12544, 32>, static_strides = array<i64: 1, 1>} : (!flow.dispatch.tensor<readonly:tensor<12544x32xf32>>) -> tensor<12544x32xf32>
        %9 = "flow.dispatch.tensor.load"(%6) {operand_segment_sizes = array<i32: 1, 0, 0, 0, 0>, static_offsets = array<i64: 0, 0>, static_sizes = array<i64: 32, 16>, static_strides = array<i64: 1, 1>} : (!flow.dispatch.tensor<readonly:tensor<32x16xf32>>) -> tensor<32x16xf32>
        %10 = "tensor.empty"() : () -> tensor<12544x16xf32>
        %11 = "linalg.fill"(%3, %10) ({
        ^bb0(%arg3: f32, %arg4: f32):
          "linalg.yield"(%arg3) : (f32) -> ()
        }) {operand_segment_sizes = array<i32: 1, 1>} : (f32, tensor<12544x16xf32>) -> tensor<12544x16xf32>
        %12 = "linalg.matmul"(%8, %9, %11) ({
        ^bb0(%arg3: f32, %arg4: f32, %arg5: f32):
          %14 = "arith.mulf"(%arg3, %arg4) {fastmath = #arith.fastmath<none>} : (f32, f32) -> f32
          %15 = "arith.addf"(%arg5, %14) {fastmath = #arith.fastmath<none>} : (f32, f32) -> f32
          "linalg.yield"(%15) : (f32) -> ()
        }) {linalg.memoized_indexing_maps = [affine_map<(d0, d1, d2) -> (d0, d2)>, affine_map<(d0, d1, d2) -> (d2, d1)>, affine_map<(d0, d1, d2) -> (d0, d1)>], operand_segment_sizes = array<i32: 2, 1>} : (tensor<12544x32xf32>, tensor<32x16xf32>, tensor<12544x16xf32>) -> tensor<12544x16xf32>
        %13 = "linalg.generic"(%4, %12, %10) ({
        ^bb0(%arg3: f32, %arg4: f32, %arg5: f32):
          %14 = "arith.addf"(%arg3, %arg4) {fastmath = #arith.fastmath<none>} : (f32, f32) -> f32
          "linalg.yield"(%14) : (f32) -> ()
        }) {indexing_maps = [affine_map<(d0, d1) -> (d1)>, affine_map<(d0, d1) -> (d0, d1)>, affine_map<(d0, d1) -> (d0, d1)>], iterator_types = [#linalg.iterator_type<parallel>, #linalg.iterator_type<parallel>], operand_segment_sizes = array<i32: 2, 1>} : (tensor<16xf32>, tensor<12544x16xf32>, tensor<12544x16xf32>) -> tensor<12544x16xf32>
        "flow.dispatch.tensor.store"(%13, %7) {operand_segment_sizes = array<i32: 1, 1, 0, 0, 0, 0>, static_offsets = array<i64: 0, 0>, static_sizes = array<i64: 12544, 16>, static_strides = array<i64: 1, 1>} : (tensor<12544x16xf32>, !flow.dispatch.tensor<writeonly:tensor<12544x16xf32>>) -> ()
        "func.return"() : () -> ()
      }) {arg_attrs = [{stream.alignment = 64 : index}, {stream.alignment = 64 : index}, {stream.alignment = 64 : index}], function_type = (!stream.binding, !stream.binding, !stream.binding) -> (), sym_name = "main_dispatch_4_matmul_12544x16x32"} : () -> ()
    }) : () -> ()
    "stream.executable.end"() : () -> ()
  }) {sym_name = "main_dispatch_4", sym_visibility = "private"} : () -> ()
  "stream.executable"() ({
    "stream.executable.export"() ({
    ^bb0(%arg0: index, %arg1: index):
      %0:3 = "flow.dispatch.workgroup_count_from_dag_root"(%arg0, %arg1) : (index, index) -> (index, index, index)
      "stream.return"(%0#0, %0#1, %0#2) : (index, index, index) -> ()
    }) {function_ref = @main_dispatch_5_matmul_12544x96x16, sym_name = "main_dispatch_5_matmul_12544x96x16"} : () -> ()
    "builtin.module"() ({
      "func.func"() ({
      ^bb0(%arg0: !stream.binding, %arg1: !stream.binding, %arg2: !stream.binding):
        %0 = "arith.constant"() {value = 1605632 : index} : () -> index
        %1 = "arith.constant"() {value = 13942848 : index} : () -> index
        %2 = "arith.constant"() {value = 326848 : index} : () -> index
        %3 = "arith.constant"() {value = 2408448 : index} : () -> index
        %4 = "arith.constant"() {value = 6.000000e+00 : f32} : () -> f32
        %5 = "arith.constant"() {value = 0.000000e+00 : f32} : () -> f32
        %6 = "stream.binding.subspan"(%arg0, %0) : (!stream.binding, index) -> !flow.dispatch.tensor<readonly:tensor<12544x16xf32>>
        %7 = "stream.binding.subspan"(%arg1, %1) : (!stream.binding, index) -> !flow.dispatch.tensor<readonly:tensor<16x96xf32>>
        %8 = "stream.binding.subspan"(%arg1, %2) : (!stream.binding, index) -> !flow.dispatch.tensor<readonly:tensor<96xf32>>
        %9 = "stream.binding.subspan"(%arg2, %3) : (!stream.binding, index) -> !flow.dispatch.tensor<writeonly:tensor<12544x96xf32>>
        %10 = "flow.dispatch.tensor.load"(%6) {operand_segment_sizes = array<i32: 1, 0, 0, 0, 0>, static_offsets = array<i64: 0, 0>, static_sizes = array<i64: 12544, 16>, static_strides = array<i64: 1, 1>} : (!flow.dispatch.tensor<readonly:tensor<12544x16xf32>>) -> tensor<12544x16xf32>
        %11 = "flow.dispatch.tensor.load"(%7) {operand_segment_sizes = array<i32: 1, 0, 0, 0, 0>, static_offsets = array<i64: 0, 0>, static_sizes = array<i64: 16, 96>, static_strides = array<i64: 1, 1>} : (!flow.dispatch.tensor<readonly:tensor<16x96xf32>>) -> tensor<16x96xf32>
        %12 = "flow.dispatch.tensor.load"(%8) {operand_segment_sizes = array<i32: 1, 0, 0, 0, 0>, static_offsets = array<i64: 0>, static_sizes = array<i64: 96>, static_strides = array<i64: 1>} : (!flow.dispatch.tensor<readonly:tensor<96xf32>>) -> tensor<96xf32>
        %13 = "tensor.empty"() : () -> tensor<12544x96xf32>
        %14 = "linalg.fill"(%5, %13) ({
        ^bb0(%arg3: f32, %arg4: f32):
          "linalg.yield"(%arg3) : (f32) -> ()
        }) {operand_segment_sizes = array<i32: 1, 1>} : (f32, tensor<12544x96xf32>) -> tensor<12544x96xf32>
        %15 = "linalg.matmul"(%10, %11, %14) ({
        ^bb0(%arg3: f32, %arg4: f32, %arg5: f32):
          %17 = "arith.mulf"(%arg3, %arg4) {fastmath = #arith.fastmath<none>} : (f32, f32) -> f32
          %18 = "arith.addf"(%arg5, %17) {fastmath = #arith.fastmath<none>} : (f32, f32) -> f32
          "linalg.yield"(%18) : (f32) -> ()
        }) {linalg.memoized_indexing_maps = [affine_map<(d0, d1, d2) -> (d0, d2)>, affine_map<(d0, d1, d2) -> (d2, d1)>, affine_map<(d0, d1, d2) -> (d0, d1)>], operand_segment_sizes = array<i32: 2, 1>} : (tensor<12544x16xf32>, tensor<16x96xf32>, tensor<12544x96xf32>) -> tensor<12544x96xf32>
        %16 = "linalg.generic"(%12, %15, %13) ({
        ^bb0(%arg3: f32, %arg4: f32, %arg5: f32):
          %17 = "arith.addf"(%arg3, %arg4) {fastmath = #arith.fastmath<none>} : (f32, f32) -> f32
          %18 = "arith.minf"(%17, %4) {fastmath = #arith.fastmath<none>} : (f32, f32) -> f32
          %19 = "arith.maxf"(%18, %5) {fastmath = #arith.fastmath<none>} : (f32, f32) -> f32
          "linalg.yield"(%19) : (f32) -> ()
        }) {indexing_maps = [affine_map<(d0, d1) -> (d1)>, affine_map<(d0, d1) -> (d0, d1)>, affine_map<(d0, d1) -> (d0, d1)>], iterator_types = [#linalg.iterator_type<parallel>, #linalg.iterator_type<parallel>], operand_segment_sizes = array<i32: 2, 1>} : (tensor<96xf32>, tensor<12544x96xf32>, tensor<12544x96xf32>) -> tensor<12544x96xf32>
        "flow.dispatch.tensor.store"(%16, %9) {operand_segment_sizes = array<i32: 1, 1, 0, 0, 0, 0>, static_offsets = array<i64: 0, 0>, static_sizes = array<i64: 12544, 96>, static_strides = array<i64: 1, 1>} : (tensor<12544x96xf32>, !flow.dispatch.tensor<writeonly:tensor<12544x96xf32>>) -> ()
        "func.return"() : () -> ()
      }) {arg_attrs = [{stream.alignment = 64 : index}, {stream.alignment = 64 : index}, {stream.alignment = 64 : index}], function_type = (!stream.binding, !stream.binding, !stream.binding) -> (), sym_name = "main_dispatch_5_matmul_12544x96x16"} : () -> ()
    }) : () -> ()
    "stream.executable.end"() : () -> ()
  }) {sym_name = "main_dispatch_5", sym_visibility = "private"} : () -> ()
  "stream.executable"() ({
    "stream.executable.export"() ({
    ^bb0(%arg0: index, %arg1: index, %arg2: index):
      %0:3 = "flow.dispatch.workgroup_count_from_dag_root"(%arg0, %arg1, %arg2) : (index, index, index) -> (index, index, index)
      "stream.return"(%0#0, %0#1, %0#2) : (index, index, index) -> ()
    }) {function_ref = @main_dispatch_6, sym_name = "main_dispatch_6"} : () -> ()
    "builtin.module"() ({
      "func.func"() ({
      ^bb0(%arg0: !stream.binding, %arg1: !stream.binding):
        %0 = "arith.constant"() {value = 2408448 : index} : () -> index
        %1 = "arith.constant"() {value = 7225344 : index} : () -> index
        %2 = "stream.binding.subspan"(%arg0, %0) : (!stream.binding, index) -> !flow.dispatch.tensor<readonly:tensor<112x112x96xf32>>
        %3 = "stream.binding.subspan"(%arg1, %1) : (!stream.binding, index) -> !flow.dispatch.tensor<readwrite:tensor<1x113x113x96xf32>>
        %4 = "flow.dispatch.tensor.load"(%2) {operand_segment_sizes = array<i32: 1, 0, 0, 0, 0>, static_offsets = array<i64: 0, 0, 0>, static_sizes = array<i64: 112, 112, 96>, static_strides = array<i64: 1, 1, 1>} : (!flow.dispatch.tensor<readonly:tensor<112x112x96xf32>>) -> tensor<112x112x96xf32>
        "flow.dispatch.tensor.store"(%4, %3) {operand_segment_sizes = array<i32: 1, 1, 0, 0, 0, 0>, static_offsets = array<i64: 0, 0, 0, 0>, static_sizes = array<i64: 1, 112, 112, 96>, static_strides = array<i64: 1, 1, 1, 1>} : (tensor<112x112x96xf32>, !flow.dispatch.tensor<readwrite:tensor<1x113x113x96xf32>>) -> ()
        "func.return"() : () -> ()
      }) {arg_attrs = [{stream.alignment = 64 : index}, {stream.alignment = 64 : index}], function_type = (!stream.binding, !stream.binding) -> (), sym_name = "main_dispatch_6"} : () -> ()
    }) : () -> ()
    "stream.executable.end"() : () -> ()
  }) {sym_name = "main_dispatch_6", sym_visibility = "private"} : () -> ()
  "stream.executable"() ({
    "stream.executable.export"() ({
    ^bb0(%arg0: index, %arg1: index, %arg2: index, %arg3: index):
      %0:3 = "flow.dispatch.workgroup_count_from_dag_root"(%arg0, %arg1, %arg2, %arg3) : (index, index, index, index) -> (index, index, index)
      "stream.return"(%0#0, %0#1, %0#2) : (index, index, index) -> ()
    }) {function_ref = @main_dispatch_7_depthwise_conv_2d_nhwc_hwc_1x56x56x96x3x3, sym_name = "main_dispatch_7_depthwise_conv_2d_nhwc_hwc_1x56x56x96x3x3"} : () -> ()
    "builtin.module"() ({
      "func.func"() ({
      ^bb0(%arg0: !stream.binding, %arg1: !stream.binding, %arg2: !stream.binding):
        %0 = "arith.constant"() {value = 7225344 : index} : () -> index
        %1 = "arith.constant"() {value = 5184 : index} : () -> index
        %2 = "arith.constant"() {value = 326464 : index} : () -> index
        %3 = "arith.constant"() {value = 0 : index} : () -> index
        %4 = "arith.constant"() {value = 6.000000e+00 : f32} : () -> f32
        %5 = "arith.constant"() {value = 0.000000e+00 : f32} : () -> f32
        %6 = "stream.binding.subspan"(%arg0, %0) : (!stream.binding, index) -> !flow.dispatch.tensor<readonly:tensor<1x113x113x96xf32>>
        %7 = "stream.binding.subspan"(%arg1, %1) : (!stream.binding, index) -> !flow.dispatch.tensor<readonly:tensor<3x3x96xf32>>
        %8 = "stream.binding.subspan"(%arg1, %2) : (!stream.binding, index) -> !flow.dispatch.tensor<readonly:tensor<96xf32>>
        %9 = "stream.binding.subspan"(%arg2, %3) : (!stream.binding, index) -> !flow.dispatch.tensor<writeonly:tensor<1x56x56x96xf32>>
        %10 = "flow.dispatch.tensor.load"(%6) {operand_segment_sizes = array<i32: 1, 0, 0, 0, 0>, static_offsets = array<i64: 0, 0, 0, 0>, static_sizes = array<i64: 1, 113, 113, 96>, static_strides = array<i64: 1, 1, 1, 1>} : (!flow.dispatch.tensor<readonly:tensor<1x113x113x96xf32>>) -> tensor<1x113x113x96xf32>
        %11 = "flow.dispatch.tensor.load"(%7) {operand_segment_sizes = array<i32: 1, 0, 0, 0, 0>, static_offsets = array<i64: 0, 0, 0>, static_sizes = array<i64: 3, 3, 96>, static_strides = array<i64: 1, 1, 1>} : (!flow.dispatch.tensor<readonly:tensor<3x3x96xf32>>) -> tensor<3x3x96xf32>
        %12 = "flow.dispatch.tensor.load"(%8) {operand_segment_sizes = array<i32: 1, 0, 0, 0, 0>, static_offsets = array<i64: 0>, static_sizes = array<i64: 96>, static_strides = array<i64: 1>} : (!flow.dispatch.tensor<readonly:tensor<96xf32>>) -> tensor<96xf32>
        %13 = "tensor.empty"() : () -> tensor<1x56x56x96xf32>
        %14 = "linalg.fill"(%5, %13) ({
        ^bb0(%arg3: f32, %arg4: f32):
          "linalg.yield"(%arg3) : (f32) -> ()
        }) {operand_segment_sizes = array<i32: 1, 1>} : (f32, tensor<1x56x56x96xf32>) -> tensor<1x56x56x96xf32>
        %15 = "linalg.depthwise_conv_2d_nhwc_hwc"(%10, %11, %14) ({
        ^bb0(%arg3: f32, %arg4: f32, %arg5: f32):
          %17 = "arith.mulf"(%arg3, %arg4) {fastmath = #arith.fastmath<none>} : (f32, f32) -> f32
          %18 = "arith.addf"(%arg5, %17) {fastmath = #arith.fastmath<none>} : (f32, f32) -> f32
          "linalg.yield"(%18) : (f32) -> ()
        }) {dilations = dense<1> : tensor<2xi64>, linalg.memoized_indexing_maps = [affine_map<(d0, d1, d2, d3, d4, d5) -> (d0, d1 * 2 + d4, d2 * 2 + d5, d3)>, affine_map<(d0, d1, d2, d3, d4, d5) -> (d4, d5, d3)>, affine_map<(d0, d1, d2, d3, d4, d5) -> (d0, d1, d2, d3)>], operand_segment_sizes = array<i32: 2, 1>, strides = dense<2> : tensor<2xi64>} : (tensor<1x113x113x96xf32>, tensor<3x3x96xf32>, tensor<1x56x56x96xf32>) -> tensor<1x56x56x96xf32>
        %16 = "linalg.generic"(%12, %15, %13) ({
        ^bb0(%arg3: f32, %arg4: f32, %arg5: f32):
          %17 = "arith.addf"(%arg3, %arg4) {fastmath = #arith.fastmath<none>} : (f32, f32) -> f32
          %18 = "arith.minf"(%17, %4) {fastmath = #arith.fastmath<none>} : (f32, f32) -> f32
          %19 = "arith.maxf"(%18, %5) {fastmath = #arith.fastmath<none>} : (f32, f32) -> f32
          "linalg.yield"(%19) : (f32) -> ()
        }) {indexing_maps = [affine_map<(d0, d1, d2, d3) -> (d3)>, affine_map<(d0, d1, d2, d3) -> (d0, d1, d2, d3)>, affine_map<(d0, d1, d2, d3) -> (d0, d1, d2, d3)>], iterator_types = [#linalg.iterator_type<parallel>, #linalg.iterator_type<parallel>, #linalg.iterator_type<parallel>, #linalg.iterator_type<parallel>], operand_segment_sizes = array<i32: 2, 1>} : (tensor<96xf32>, tensor<1x56x56x96xf32>, tensor<1x56x56x96xf32>) -> tensor<1x56x56x96xf32>
        "flow.dispatch.tensor.store"(%16, %9) {operand_segment_sizes = array<i32: 1, 1, 0, 0, 0, 0>, static_offsets = array<i64: 0, 0, 0, 0>, static_sizes = array<i64: 1, 56, 56, 96>, static_strides = array<i64: 1, 1, 1, 1>} : (tensor<1x56x56x96xf32>, !flow.dispatch.tensor<writeonly:tensor<1x56x56x96xf32>>) -> ()
        "func.return"() : () -> ()
      }) {arg_attrs = [{stream.alignment = 64 : index}, {stream.alignment = 64 : index}, {stream.alignment = 64 : index}], function_type = (!stream.binding, !stream.binding, !stream.binding) -> (), sym_name = "main_dispatch_7_depthwise_conv_2d_nhwc_hwc_1x56x56x96x3x3"} : () -> ()
    }) : () -> ()
    "stream.executable.end"() : () -> ()
  }) {sym_name = "main_dispatch_7", sym_visibility = "private"} : () -> ()
  "stream.executable"() ({
    "stream.executable.export"() ({
    ^bb0(%arg0: index, %arg1: index):
      %0:3 = "flow.dispatch.workgroup_count_from_dag_root"(%arg0, %arg1) : (index, index) -> (index, index, index)
      "stream.return"(%0#0, %0#1, %0#2) : (index, index, index) -> ()
    }) {function_ref = @main_dispatch_8_matmul_3136x24x96, sym_name = "main_dispatch_8_matmul_3136x24x96"} : () -> ()
    "builtin.module"() ({
      "func.func"() ({
      ^bb0(%arg0: !stream.binding, %arg1: !stream.binding, %arg2: !stream.binding):
        %0 = "arith.constant"() {value = 0 : index} : () -> index
        %1 = "arith.constant"() {value = 13933632 : index} : () -> index
        %2 = "arith.constant"() {value = 1204224 : index} : () -> index
        %3 = "arith.constant"() {value = 0.000000e+00 : f32} : () -> f32
        %4 = "arith.constant"() {value = dense_resource<__elided__> : tensor<24xf32>} : () -> tensor<24xf32>
        %5 = "stream.binding.subspan"(%arg0, %0) : (!stream.binding, index) -> !flow.dispatch.tensor<readonly:tensor<3136x96xf32>>
        %6 = "stream.binding.subspan"(%arg1, %1) : (!stream.binding, index) -> !flow.dispatch.tensor<readonly:tensor<96x24xf32>>
        %7 = "stream.binding.subspan"(%arg2, %2) : (!stream.binding, index) -> !flow.dispatch.tensor<writeonly:tensor<3136x24xf32>>
        %8 = "flow.dispatch.tensor.load"(%5) {operand_segment_sizes = array<i32: 1, 0, 0, 0, 0>, static_offsets = array<i64: 0, 0>, static_sizes = array<i64: 3136, 96>, static_strides = array<i64: 1, 1>} : (!flow.dispatch.tensor<readonly:tensor<3136x96xf32>>) -> tensor<3136x96xf32>
        %9 = "flow.dispatch.tensor.load"(%6) {operand_segment_sizes = array<i32: 1, 0, 0, 0, 0>, static_offsets = array<i64: 0, 0>, static_sizes = array<i64: 96, 24>, static_strides = array<i64: 1, 1>} : (!flow.dispatch.tensor<readonly:tensor<96x24xf32>>) -> tensor<96x24xf32>
        %10 = "tensor.empty"() : () -> tensor<3136x24xf32>
        %11 = "linalg.fill"(%3, %10) ({
        ^bb0(%arg3: f32, %arg4: f32):
          "linalg.yield"(%arg3) : (f32) -> ()
        }) {operand_segment_sizes = array<i32: 1, 1>} : (f32, tensor<3136x24xf32>) -> tensor<3136x24xf32>
        %12 = "linalg.matmul"(%8, %9, %11) ({
        ^bb0(%arg3: f32, %arg4: f32, %arg5: f32):
          %14 = "arith.mulf"(%arg3, %arg4) {fastmath = #arith.fastmath<none>} : (f32, f32) -> f32
          %15 = "arith.addf"(%arg5, %14) {fastmath = #arith.fastmath<none>} : (f32, f32) -> f32
          "linalg.yield"(%15) : (f32) -> ()
        }) {linalg.memoized_indexing_maps = [affine_map<(d0, d1, d2) -> (d0, d2)>, affine_map<(d0, d1, d2) -> (d2, d1)>, affine_map<(d0, d1, d2) -> (d0, d1)>], operand_segment_sizes = array<i32: 2, 1>} : (tensor<3136x96xf32>, tensor<96x24xf32>, tensor<3136x24xf32>) -> tensor<3136x24xf32>
        %13 = "linalg.generic"(%4, %12, %10) ({
        ^bb0(%arg3: f32, %arg4: f32, %arg5: f32):
          %14 = "arith.addf"(%arg3, %arg4) {fastmath = #arith.fastmath<none>} : (f32, f32) -> f32
          "linalg.yield"(%14) : (f32) -> ()
        }) {indexing_maps = [affine_map<(d0, d1) -> (d1)>, affine_map<(d0, d1) -> (d0, d1)>, affine_map<(d0, d1) -> (d0, d1)>], iterator_types = [#linalg.iterator_type<parallel>, #linalg.iterator_type<parallel>], operand_segment_sizes = array<i32: 2, 1>} : (tensor<24xf32>, tensor<3136x24xf32>, tensor<3136x24xf32>) -> tensor<3136x24xf32>
        "flow.dispatch.tensor.store"(%13, %7) {operand_segment_sizes = array<i32: 1, 1, 0, 0, 0, 0>, static_offsets = array<i64: 0, 0>, static_sizes = array<i64: 3136, 24>, static_strides = array<i64: 1, 1>} : (tensor<3136x24xf32>, !flow.dispatch.tensor<writeonly:tensor<3136x24xf32>>) -> ()
        "func.return"() : () -> ()
      }) {arg_attrs = [{stream.alignment = 64 : index}, {stream.alignment = 64 : index}, {stream.alignment = 64 : index}], function_type = (!stream.binding, !stream.binding, !stream.binding) -> (), sym_name = "main_dispatch_8_matmul_3136x24x96"} : () -> ()
    }) : () -> ()
    "stream.executable.end"() : () -> ()
  }) {sym_name = "main_dispatch_8", sym_visibility = "private"} : () -> ()
  "stream.executable"() ({
    "stream.executable.export"() ({
    ^bb0(%arg0: index, %arg1: index):
      %0:3 = "flow.dispatch.workgroup_count_from_dag_root"(%arg0, %arg1) : (index, index) -> (index, index, index)
      "stream.return"(%0#0, %0#1, %0#2) : (index, index, index) -> ()
    }) {function_ref = @main_dispatch_9_matmul_3136x144x24, sym_name = "main_dispatch_9_matmul_3136x144x24"} : () -> ()
    "builtin.module"() ({
      "func.func"() ({
      ^bb0(%arg0: !stream.binding, %arg1: !stream.binding, %arg2: !stream.binding, %arg3: i32, %arg4: i32, %arg5: i32, %arg6: i32):
        %0 = "arith.constant"() {value = 6.000000e+00 : f32} : () -> f32
        %1 = "arith.constant"() {value = 0.000000e+00 : f32} : () -> f32
        %2 = "arith.index_castui"(%arg3) {stream.alignment = 8192 : index, stream.values = [0 : index, 1204224 : index]} : (i32) -> index
        %3 = "arith.index_castui"(%arg4) {stream.alignment = 64 : index, stream.values = [13892160 : index, 13919808 : index]} : (i32) -> index
        %4 = "arith.index_castui"(%arg5) {stream.alignment = 128 : index, stream.values = [324736 : index, 325888 : index]} : (i32) -> index
        %5 = "arith.index_castui"(%arg6) {stream.alignment = 2048 : index, stream.values = [301056 : index, 1505280 : index]} : (i32) -> index
        %6 = "stream.binding.subspan"(%arg0, %2) : (!stream.binding, index) -> !flow.dispatch.tensor<readonly:tensor<3136x24xf32>>
        %7 = "stream.binding.subspan"(%arg1, %3) : (!stream.binding, index) -> !flow.dispatch.tensor<readonly:tensor<24x144xf32>>
        %8 = "stream.binding.subspan"(%arg1, %4) : (!stream.binding, index) -> !flow.dispatch.tensor<readonly:tensor<144xf32>>
        %9 = "stream.binding.subspan"(%arg2, %5) : (!stream.binding, index) -> !flow.dispatch.tensor<writeonly:tensor<3136x144xf32>>
        %10 = "flow.dispatch.tensor.load"(%6) {operand_segment_sizes = array<i32: 1, 0, 0, 0, 0>, static_offsets = array<i64: 0, 0>, static_sizes = array<i64: 3136, 24>, static_strides = array<i64: 1, 1>} : (!flow.dispatch.tensor<readonly:tensor<3136x24xf32>>) -> tensor<3136x24xf32>
        %11 = "flow.dispatch.tensor.load"(%7) {operand_segment_sizes = array<i32: 1, 0, 0, 0, 0>, static_offsets = array<i64: 0, 0>, static_sizes = array<i64: 24, 144>, static_strides = array<i64: 1, 1>} : (!flow.dispatch.tensor<readonly:tensor<24x144xf32>>) -> tensor<24x144xf32>
        %12 = "flow.dispatch.tensor.load"(%8) {operand_segment_sizes = array<i32: 1, 0, 0, 0, 0>, static_offsets = array<i64: 0>, static_sizes = array<i64: 144>, static_strides = array<i64: 1>} : (!flow.dispatch.tensor<readonly:tensor<144xf32>>) -> tensor<144xf32>
        %13 = "tensor.empty"() : () -> tensor<3136x144xf32>
        %14 = "linalg.fill"(%1, %13) ({
        ^bb0(%arg7: f32, %arg8: f32):
          "linalg.yield"(%arg7) : (f32) -> ()
        }) {operand_segment_sizes = array<i32: 1, 1>} : (f32, tensor<3136x144xf32>) -> tensor<3136x144xf32>
        %15 = "linalg.matmul"(%10, %11, %14) ({
        ^bb0(%arg7: f32, %arg8: f32, %arg9: f32):
          %17 = "arith.mulf"(%arg7, %arg8) {fastmath = #arith.fastmath<none>} : (f32, f32) -> f32
          %18 = "arith.addf"(%arg9, %17) {fastmath = #arith.fastmath<none>} : (f32, f32) -> f32
          "linalg.yield"(%18) : (f32) -> ()
        }) {linalg.memoized_indexing_maps = [affine_map<(d0, d1, d2) -> (d0, d2)>, affine_map<(d0, d1, d2) -> (d2, d1)>, affine_map<(d0, d1, d2) -> (d0, d1)>], operand_segment_sizes = array<i32: 2, 1>} : (tensor<3136x24xf32>, tensor<24x144xf32>, tensor<3136x144xf32>) -> tensor<3136x144xf32>
        %16 = "linalg.generic"(%12, %15, %13) ({
        ^bb0(%arg7: f32, %arg8: f32, %arg9: f32):
          %17 = "arith.addf"(%arg7, %arg8) {fastmath = #arith.fastmath<none>} : (f32, f32) -> f32
          %18 = "arith.minf"(%17, %0) {fastmath = #arith.fastmath<none>} : (f32, f32) -> f32
          %19 = "arith.maxf"(%18, %1) {fastmath = #arith.fastmath<none>} : (f32, f32) -> f32
          "linalg.yield"(%19) : (f32) -> ()
        }) {indexing_maps = [affine_map<(d0, d1) -> (d1)>, affine_map<(d0, d1) -> (d0, d1)>, affine_map<(d0, d1) -> (d0, d1)>], iterator_types = [#linalg.iterator_type<parallel>, #linalg.iterator_type<parallel>], operand_segment_sizes = array<i32: 2, 1>} : (tensor<144xf32>, tensor<3136x144xf32>, tensor<3136x144xf32>) -> tensor<3136x144xf32>
        "flow.dispatch.tensor.store"(%16, %9) {operand_segment_sizes = array<i32: 1, 1, 0, 0, 0, 0>, static_offsets = array<i64: 0, 0>, static_sizes = array<i64: 3136, 144>, static_strides = array<i64: 1, 1>} : (tensor<3136x144xf32>, !flow.dispatch.tensor<writeonly:tensor<3136x144xf32>>) -> ()
        "func.return"() : () -> ()
      }) {arg_attrs = [{stream.alignment = 64 : index}, {stream.alignment = 64 : index}, {stream.alignment = 64 : index}, {}, {}, {}, {}], function_type = (!stream.binding, !stream.binding, !stream.binding, i32, i32, i32, i32) -> (), sym_name = "main_dispatch_9_matmul_3136x144x24"} : () -> ()
    }) : () -> ()
    "stream.executable.end"() : () -> ()
  }) {sym_name = "main_dispatch_9", sym_visibility = "private"} : () -> ()
  "stream.executable"() ({
    "stream.executable.export"() ({
    ^bb0(%arg0: index, %arg1: index, %arg2: index):
      %0:3 = "flow.dispatch.workgroup_count_from_dag_root"(%arg0, %arg1, %arg2) : (index, index, index) -> (index, index, index)
      "stream.return"(%0#0, %0#1, %0#2) : (index, index, index) -> ()
    }) {function_ref = @main_dispatch_10, sym_name = "main_dispatch_10"} : () -> ()
    "builtin.module"() ({
      "func.func"() ({
      ^bb0(%arg0: !stream.binding, %arg1: !stream.binding):
        %0 = "arith.constant"() {value = 1505280 : index} : () -> index
        %1 = "arith.constant"() {value = 3311616 : index} : () -> index
        %2 = "stream.binding.subspan"(%arg0, %0) : (!stream.binding, index) -> !flow.dispatch.tensor<readonly:tensor<56x56x144xf32>>
        %3 = "stream.binding.subspan"(%arg1, %1) : (!stream.binding, index) -> !flow.dispatch.tensor<readwrite:tensor<1x58x58x144xf32>>
        %4 = "flow.dispatch.tensor.load"(%2) {operand_segment_sizes = array<i32: 1, 0, 0, 0, 0>, static_offsets = array<i64: 0, 0, 0>, static_sizes = array<i64: 56, 56, 144>, static_strides = array<i64: 1, 1, 1>} : (!flow.dispatch.tensor<readonly:tensor<56x56x144xf32>>) -> tensor<56x56x144xf32>
        "flow.dispatch.tensor.store"(%4, %3) {operand_segment_sizes = array<i32: 1, 1, 0, 0, 0, 0>, static_offsets = array<i64: 0, 1, 1, 0>, static_sizes = array<i64: 1, 56, 56, 144>, static_strides = array<i64: 1, 1, 1, 1>} : (tensor<56x56x144xf32>, !flow.dispatch.tensor<readwrite:tensor<1x58x58x144xf32>>) -> ()
        "func.return"() : () -> ()
      }) {arg_attrs = [{stream.alignment = 64 : index}, {stream.alignment = 64 : index}], function_type = (!stream.binding, !stream.binding) -> (), sym_name = "main_dispatch_10"} : () -> ()
    }) : () -> ()
    "stream.executable.end"() : () -> ()
  }) {sym_name = "main_dispatch_10", sym_visibility = "private"} : () -> ()
  "stream.executable"() ({
    "stream.executable.export"() ({
    ^bb0(%arg0: index, %arg1: index, %arg2: index, %arg3: index):
      %0:3 = "flow.dispatch.workgroup_count_from_dag_root"(%arg0, %arg1, %arg2, %arg3) : (index, index, index, index) -> (index, index, index)
      "stream.return"(%0#0, %0#1, %0#2) : (index, index, index) -> ()
    }) {function_ref = @main_dispatch_11_depthwise_conv_2d_nhwc_hwc_1x56x56x144x3x3, sym_name = "main_dispatch_11_depthwise_conv_2d_nhwc_hwc_1x56x56x144x3x3"} : () -> ()
    "builtin.module"() ({
      "func.func"() ({
      ^bb0(%arg0: !stream.binding, %arg1: !stream.binding, %arg2: !stream.binding):
        %0 = "arith.constant"() {value = 3311616 : index} : () -> index
        %1 = "arith.constant"() {value = 8640 : index} : () -> index
        %2 = "arith.constant"() {value = 325312 : index} : () -> index
        %3 = "arith.constant"() {value = 1505280 : index} : () -> index
        %4 = "arith.constant"() {value = 6.000000e+00 : f32} : () -> f32
        %5 = "arith.constant"() {value = 0.000000e+00 : f32} : () -> f32
        %6 = "stream.binding.subspan"(%arg0, %0) : (!stream.binding, index) -> !flow.dispatch.tensor<readonly:tensor<1x58x58x144xf32>>
        %7 = "stream.binding.subspan"(%arg1, %1) : (!stream.binding, index) -> !flow.dispatch.tensor<readonly:tensor<3x3x144xf32>>
        %8 = "stream.binding.subspan"(%arg1, %2) : (!stream.binding, index) -> !flow.dispatch.tensor<readonly:tensor<144xf32>>
        %9 = "stream.binding.subspan"(%arg2, %3) : (!stream.binding, index) -> !flow.dispatch.tensor<writeonly:tensor<1x56x56x144xf32>>
        %10 = "flow.dispatch.tensor.load"(%6) {operand_segment_sizes = array<i32: 1, 0, 0, 0, 0>, static_offsets = array<i64: 0, 0, 0, 0>, static_sizes = array<i64: 1, 58, 58, 144>, static_strides = array<i64: 1, 1, 1, 1>} : (!flow.dispatch.tensor<readonly:tensor<1x58x58x144xf32>>) -> tensor<1x58x58x144xf32>
        %11 = "flow.dispatch.tensor.load"(%7) {operand_segment_sizes = array<i32: 1, 0, 0, 0, 0>, static_offsets = array<i64: 0, 0, 0>, static_sizes = array<i64: 3, 3, 144>, static_strides = array<i64: 1, 1, 1>} : (!flow.dispatch.tensor<readonly:tensor<3x3x144xf32>>) -> tensor<3x3x144xf32>
        %12 = "flow.dispatch.tensor.load"(%8) {operand_segment_sizes = array<i32: 1, 0, 0, 0, 0>, static_offsets = array<i64: 0>, static_sizes = array<i64: 144>, static_strides = array<i64: 1>} : (!flow.dispatch.tensor<readonly:tensor<144xf32>>) -> tensor<144xf32>
        %13 = "tensor.empty"() : () -> tensor<1x56x56x144xf32>
        %14 = "linalg.fill"(%5, %13) ({
        ^bb0(%arg3: f32, %arg4: f32):
          "linalg.yield"(%arg3) : (f32) -> ()
        }) {operand_segment_sizes = array<i32: 1, 1>} : (f32, tensor<1x56x56x144xf32>) -> tensor<1x56x56x144xf32>
        %15 = "linalg.depthwise_conv_2d_nhwc_hwc"(%10, %11, %14) ({
        ^bb0(%arg3: f32, %arg4: f32, %arg5: f32):
          %17 = "arith.mulf"(%arg3, %arg4) {fastmath = #arith.fastmath<none>} : (f32, f32) -> f32
          %18 = "arith.addf"(%arg5, %17) {fastmath = #arith.fastmath<none>} : (f32, f32) -> f32
          "linalg.yield"(%18) : (f32) -> ()
        }) {dilations = dense<1> : tensor<2xi64>, linalg.memoized_indexing_maps = [affine_map<(d0, d1, d2, d3, d4, d5) -> (d0, d1 + d4, d2 + d5, d3)>, affine_map<(d0, d1, d2, d3, d4, d5) -> (d4, d5, d3)>, affine_map<(d0, d1, d2, d3, d4, d5) -> (d0, d1, d2, d3)>], operand_segment_sizes = array<i32: 2, 1>, strides = dense<1> : tensor<2xi64>} : (tensor<1x58x58x144xf32>, tensor<3x3x144xf32>, tensor<1x56x56x144xf32>) -> tensor<1x56x56x144xf32>
        %16 = "linalg.generic"(%12, %15, %13) ({
        ^bb0(%arg3: f32, %arg4: f32, %arg5: f32):
          %17 = "arith.addf"(%arg3, %arg4) {fastmath = #arith.fastmath<none>} : (f32, f32) -> f32
          %18 = "arith.minf"(%17, %4) {fastmath = #arith.fastmath<none>} : (f32, f32) -> f32
          %19 = "arith.maxf"(%18, %5) {fastmath = #arith.fastmath<none>} : (f32, f32) -> f32
          "linalg.yield"(%19) : (f32) -> ()
        }) {indexing_maps = [affine_map<(d0, d1, d2, d3) -> (d3)>, affine_map<(d0, d1, d2, d3) -> (d0, d1, d2, d3)>, affine_map<(d0, d1, d2, d3) -> (d0, d1, d2, d3)>], iterator_types = [#linalg.iterator_type<parallel>, #linalg.iterator_type<parallel>, #linalg.iterator_type<parallel>, #linalg.iterator_type<parallel>], operand_segment_sizes = array<i32: 2, 1>} : (tensor<144xf32>, tensor<1x56x56x144xf32>, tensor<1x56x56x144xf32>) -> tensor<1x56x56x144xf32>
        "flow.dispatch.tensor.store"(%16, %9) {operand_segment_sizes = array<i32: 1, 1, 0, 0, 0, 0>, static_offsets = array<i64: 0, 0, 0, 0>, static_sizes = array<i64: 1, 56, 56, 144>, static_strides = array<i64: 1, 1, 1, 1>} : (tensor<1x56x56x144xf32>, !flow.dispatch.tensor<writeonly:tensor<1x56x56x144xf32>>) -> ()
        "func.return"() : () -> ()
      }) {arg_attrs = [{stream.alignment = 64 : index}, {stream.alignment = 64 : index}, {stream.alignment = 64 : index}], function_type = (!stream.binding, !stream.binding, !stream.binding) -> (), sym_name = "main_dispatch_11_depthwise_conv_2d_nhwc_hwc_1x56x56x144x3x3"} : () -> ()
    }) : () -> ()
    "stream.executable.end"() : () -> ()
  }) {sym_name = "main_dispatch_11", sym_visibility = "private"} : () -> ()
  "stream.executable"() ({
    "stream.executable.export"() ({
    ^bb0(%arg0: index, %arg1: index):
      %0:3 = "flow.dispatch.workgroup_count_from_dag_root"(%arg0, %arg1) : (index, index) -> (index, index, index)
      "stream.return"(%0#0, %0#1, %0#2) : (index, index, index) -> ()
    }) {function_ref = @main_dispatch_12_matmul_3136x24x144, sym_name = "main_dispatch_12_matmul_3136x24x144"} : () -> ()
    "builtin.module"() ({
      "func.func"() ({
      ^bb0(%arg0: !stream.binding, %arg1: !stream.binding, %arg2: !stream.binding):
        %0 = "arith.constant"() {value = 1505280 : index} : () -> index
        %1 = "arith.constant"() {value = 1204224 : index} : () -> index
        %2 = "arith.constant"() {value = 13905984 : index} : () -> index
        %3 = "arith.constant"() {value = 0 : index} : () -> index
        %4 = "arith.constant"() {value = 0.000000e+00 : f32} : () -> f32
        %5 = "arith.constant"() {value = dense_resource<__elided__> : tensor<24xf32>} : () -> tensor<24xf32>
        %6 = "stream.binding.subspan"(%arg0, %0) : (!stream.binding, index) -> !flow.dispatch.tensor<readonly:tensor<3136x144xf32>>
        %7 = "stream.binding.subspan"(%arg1, %2) : (!stream.binding, index) -> !flow.dispatch.tensor<readonly:tensor<144x24xf32>>
        %8 = "stream.binding.subspan"(%arg0, %1) : (!stream.binding, index) -> !flow.dispatch.tensor<readonly:tensor<3136x24xf32>>
        %9 = "stream.binding.subspan"(%arg2, %3) : (!stream.binding, index) -> !flow.dispatch.tensor<writeonly:tensor<3136x24xf32>>
        %10 = "flow.dispatch.tensor.load"(%6) {operand_segment_sizes = array<i32: 1, 0, 0, 0, 0>, static_offsets = array<i64: 0, 0>, static_sizes = array<i64: 3136, 144>, static_strides = array<i64: 1, 1>} : (!flow.dispatch.tensor<readonly:tensor<3136x144xf32>>) -> tensor<3136x144xf32>
        %11 = "flow.dispatch.tensor.load"(%7) {operand_segment_sizes = array<i32: 1, 0, 0, 0, 0>, static_offsets = array<i64: 0, 0>, static_sizes = array<i64: 144, 24>, static_strides = array<i64: 1, 1>} : (!flow.dispatch.tensor<readonly:tensor<144x24xf32>>) -> tensor<144x24xf32>
        %12 = "flow.dispatch.tensor.load"(%8) {operand_segment_sizes = array<i32: 1, 0, 0, 0, 0>, static_offsets = array<i64: 0, 0>, static_sizes = array<i64: 3136, 24>, static_strides = array<i64: 1, 1>} : (!flow.dispatch.tensor<readonly:tensor<3136x24xf32>>) -> tensor<3136x24xf32>
        %13 = "tensor.empty"() : () -> tensor<3136x24xf32>
        %14 = "linalg.fill"(%4, %13) ({
        ^bb0(%arg3: f32, %arg4: f32):
          "linalg.yield"(%arg3) : (f32) -> ()
        }) {operand_segment_sizes = array<i32: 1, 1>} : (f32, tensor<3136x24xf32>) -> tensor<3136x24xf32>
        %15 = "linalg.matmul"(%10, %11, %14) ({
        ^bb0(%arg3: f32, %arg4: f32, %arg5: f32):
          %17 = "arith.mulf"(%arg3, %arg4) {fastmath = #arith.fastmath<none>} : (f32, f32) -> f32
          %18 = "arith.addf"(%arg5, %17) {fastmath = #arith.fastmath<none>} : (f32, f32) -> f32
          "linalg.yield"(%18) : (f32) -> ()
        }) {linalg.memoized_indexing_maps = [affine_map<(d0, d1, d2) -> (d0, d2)>, affine_map<(d0, d1, d2) -> (d2, d1)>, affine_map<(d0, d1, d2) -> (d0, d1)>], operand_segment_sizes = array<i32: 2, 1>} : (tensor<3136x144xf32>, tensor<144x24xf32>, tensor<3136x24xf32>) -> tensor<3136x24xf32>
        %16 = "linalg.generic"(%5, %15, %12, %13) ({
        ^bb0(%arg3: f32, %arg4: f32, %arg5: f32, %arg6: f32):
          %17 = "arith.addf"(%arg3, %arg4) {fastmath = #arith.fastmath<none>} : (f32, f32) -> f32
          %18 = "arith.addf"(%17, %arg5) {fastmath = #arith.fastmath<none>} : (f32, f32) -> f32
          "linalg.yield"(%18) : (f32) -> ()
        }) {indexing_maps = [affine_map<(d0, d1) -> (d1)>, affine_map<(d0, d1) -> (d0, d1)>, affine_map<(d0, d1) -> (d0, d1)>, affine_map<(d0, d1) -> (d0, d1)>], iterator_types = [#linalg.iterator_type<parallel>, #linalg.iterator_type<parallel>], operand_segment_sizes = array<i32: 3, 1>} : (tensor<24xf32>, tensor<3136x24xf32>, tensor<3136x24xf32>, tensor<3136x24xf32>) -> tensor<3136x24xf32>
        "flow.dispatch.tensor.store"(%16, %9) {operand_segment_sizes = array<i32: 1, 1, 0, 0, 0, 0>, static_offsets = array<i64: 0, 0>, static_sizes = array<i64: 3136, 24>, static_strides = array<i64: 1, 1>} : (tensor<3136x24xf32>, !flow.dispatch.tensor<writeonly:tensor<3136x24xf32>>) -> ()
        "func.return"() : () -> ()
      }) {arg_attrs = [{stream.alignment = 64 : index}, {stream.alignment = 64 : index}, {stream.alignment = 64 : index}], function_type = (!stream.binding, !stream.binding, !stream.binding) -> (), sym_name = "main_dispatch_12_matmul_3136x24x144"} : () -> ()
    }) : () -> ()
    "stream.executable.end"() : () -> ()
  }) {sym_name = "main_dispatch_12", sym_visibility = "private"} : () -> ()
  "stream.executable"() ({
    "stream.executable.export"() ({
    ^bb0(%arg0: index, %arg1: index, %arg2: index):
      %0:3 = "flow.dispatch.workgroup_count_from_dag_root"(%arg0, %arg1, %arg2) : (index, index, index) -> (index, index, index)
      "stream.return"(%0#0, %0#1, %0#2) : (index, index, index) -> ()
    }) {function_ref = @main_dispatch_14, sym_name = "main_dispatch_14"} : () -> ()
    "builtin.module"() ({
      "func.func"() ({
      ^bb0(%arg0: !stream.binding, %arg1: !stream.binding):
        %0 = "arith.constant"() {value = 301056 : index} : () -> index
        %1 = "arith.constant"() {value = 2107392 : index} : () -> index
        %2 = "stream.binding.subspan"(%arg0, %0) : (!stream.binding, index) -> !flow.dispatch.tensor<readonly:tensor<56x56x144xf32>>
        %3 = "stream.binding.subspan"(%arg1, %1) : (!stream.binding, index) -> !flow.dispatch.tensor<readwrite:tensor<1x57x57x144xf32>>
        %4 = "flow.dispatch.tensor.load"(%2) {operand_segment_sizes = array<i32: 1, 0, 0, 0, 0>, static_offsets = array<i64: 0, 0, 0>, static_sizes = array<i64: 56, 56, 144>, static_strides = array<i64: 1, 1, 1>} : (!flow.dispatch.tensor<readonly:tensor<56x56x144xf32>>) -> tensor<56x56x144xf32>
        "flow.dispatch.tensor.store"(%4, %3) {operand_segment_sizes = array<i32: 1, 1, 0, 0, 0, 0>, static_offsets = array<i64: 0, 0, 0, 0>, static_sizes = array<i64: 1, 56, 56, 144>, static_strides = array<i64: 1, 1, 1, 1>} : (tensor<56x56x144xf32>, !flow.dispatch.tensor<readwrite:tensor<1x57x57x144xf32>>) -> ()
        "func.return"() : () -> ()
      }) {arg_attrs = [{stream.alignment = 64 : index}, {stream.alignment = 64 : index}], function_type = (!stream.binding, !stream.binding) -> (), sym_name = "main_dispatch_14"} : () -> ()
    }) : () -> ()
    "stream.executable.end"() : () -> ()
  }) {sym_name = "main_dispatch_14", sym_visibility = "private"} : () -> ()
  "stream.executable"() ({
    "stream.executable.export"() ({
    ^bb0(%arg0: index, %arg1: index, %arg2: index, %arg3: index):
      %0:3 = "flow.dispatch.workgroup_count_from_dag_root"(%arg0, %arg1, %arg2, %arg3) : (index, index, index, index) -> (index, index, index)
      "stream.return"(%0#0, %0#1, %0#2) : (index, index, index) -> ()
    }) {function_ref = @main_dispatch_15_depthwise_conv_2d_nhwc_hwc_1x28x28x144x3x3, sym_name = "main_dispatch_15_depthwise_conv_2d_nhwc_hwc_1x28x28x144x3x3"} : () -> ()
    "builtin.module"() ({
      "func.func"() ({
      ^bb0(%arg0: !stream.binding, %arg1: !stream.binding, %arg2: !stream.binding):
        %0 = "arith.constant"() {value = 2107392 : index} : () -> index
        %1 = "arith.constant"() {value = 13824 : index} : () -> index
        %2 = "arith.constant"() {value = 324160 : index} : () -> index
        %3 = "arith.constant"() {value = 0 : index} : () -> index
        %4 = "arith.constant"() {value = 6.000000e+00 : f32} : () -> f32
        %5 = "arith.constant"() {value = 0.000000e+00 : f32} : () -> f32
        %6 = "stream.binding.subspan"(%arg0, %0) : (!stream.binding, index) -> !flow.dispatch.tensor<readonly:tensor<1x57x57x144xf32>>
        %7 = "stream.binding.subspan"(%arg1, %1) : (!stream.binding, index) -> !flow.dispatch.tensor<readonly:tensor<3x3x144xf32>>
        %8 = "stream.binding.subspan"(%arg1, %2) : (!stream.binding, index) -> !flow.dispatch.tensor<readonly:tensor<144xf32>>
        %9 = "stream.binding.subspan"(%arg2, %3) : (!stream.binding, index) -> !flow.dispatch.tensor<writeonly:tensor<1x28x28x144xf32>>
        %10 = "flow.dispatch.tensor.load"(%6) {operand_segment_sizes = array<i32: 1, 0, 0, 0, 0>, static_offsets = array<i64: 0, 0, 0, 0>, static_sizes = array<i64: 1, 57, 57, 144>, static_strides = array<i64: 1, 1, 1, 1>} : (!flow.dispatch.tensor<readonly:tensor<1x57x57x144xf32>>) -> tensor<1x57x57x144xf32>
        %11 = "flow.dispatch.tensor.load"(%7) {operand_segment_sizes = array<i32: 1, 0, 0, 0, 0>, static_offsets = array<i64: 0, 0, 0>, static_sizes = array<i64: 3, 3, 144>, static_strides = array<i64: 1, 1, 1>} : (!flow.dispatch.tensor<readonly:tensor<3x3x144xf32>>) -> tensor<3x3x144xf32>
        %12 = "flow.dispatch.tensor.load"(%8) {operand_segment_sizes = array<i32: 1, 0, 0, 0, 0>, static_offsets = array<i64: 0>, static_sizes = array<i64: 144>, static_strides = array<i64: 1>} : (!flow.dispatch.tensor<readonly:tensor<144xf32>>) -> tensor<144xf32>
        %13 = "tensor.empty"() : () -> tensor<1x28x28x144xf32>
        %14 = "linalg.fill"(%5, %13) ({
        ^bb0(%arg3: f32, %arg4: f32):
          "linalg.yield"(%arg3) : (f32) -> ()
        }) {operand_segment_sizes = array<i32: 1, 1>} : (f32, tensor<1x28x28x144xf32>) -> tensor<1x28x28x144xf32>
        %15 = "linalg.depthwise_conv_2d_nhwc_hwc"(%10, %11, %14) ({
        ^bb0(%arg3: f32, %arg4: f32, %arg5: f32):
          %17 = "arith.mulf"(%arg3, %arg4) {fastmath = #arith.fastmath<none>} : (f32, f32) -> f32
          %18 = "arith.addf"(%arg5, %17) {fastmath = #arith.fastmath<none>} : (f32, f32) -> f32
          "linalg.yield"(%18) : (f32) -> ()
        }) {dilations = dense<1> : tensor<2xi64>, linalg.memoized_indexing_maps = [affine_map<(d0, d1, d2, d3, d4, d5) -> (d0, d1 * 2 + d4, d2 * 2 + d5, d3)>, affine_map<(d0, d1, d2, d3, d4, d5) -> (d4, d5, d3)>, affine_map<(d0, d1, d2, d3, d4, d5) -> (d0, d1, d2, d3)>], operand_segment_sizes = array<i32: 2, 1>, strides = dense<2> : tensor<2xi64>} : (tensor<1x57x57x144xf32>, tensor<3x3x144xf32>, tensor<1x28x28x144xf32>) -> tensor<1x28x28x144xf32>
        %16 = "linalg.generic"(%12, %15, %13) ({
        ^bb0(%arg3: f32, %arg4: f32, %arg5: f32):
          %17 = "arith.addf"(%arg3, %arg4) {fastmath = #arith.fastmath<none>} : (f32, f32) -> f32
          %18 = "arith.minf"(%17, %4) {fastmath = #arith.fastmath<none>} : (f32, f32) -> f32
          %19 = "arith.maxf"(%18, %5) {fastmath = #arith.fastmath<none>} : (f32, f32) -> f32
          "linalg.yield"(%19) : (f32) -> ()
        }) {indexing_maps = [affine_map<(d0, d1, d2, d3) -> (d3)>, affine_map<(d0, d1, d2, d3) -> (d0, d1, d2, d3)>, affine_map<(d0, d1, d2, d3) -> (d0, d1, d2, d3)>], iterator_types = [#linalg.iterator_type<parallel>, #linalg.iterator_type<parallel>, #linalg.iterator_type<parallel>, #linalg.iterator_type<parallel>], operand_segment_sizes = array<i32: 2, 1>} : (tensor<144xf32>, tensor<1x28x28x144xf32>, tensor<1x28x28x144xf32>) -> tensor<1x28x28x144xf32>
        "flow.dispatch.tensor.store"(%16, %9) {operand_segment_sizes = array<i32: 1, 1, 0, 0, 0, 0>, static_offsets = array<i64: 0, 0, 0, 0>, static_sizes = array<i64: 1, 28, 28, 144>, static_strides = array<i64: 1, 1, 1, 1>} : (tensor<1x28x28x144xf32>, !flow.dispatch.tensor<writeonly:tensor<1x28x28x144xf32>>) -> ()
        "func.return"() : () -> ()
      }) {arg_attrs = [{stream.alignment = 64 : index}, {stream.alignment = 64 : index}, {stream.alignment = 64 : index}], function_type = (!stream.binding, !stream.binding, !stream.binding) -> (), sym_name = "main_dispatch_15_depthwise_conv_2d_nhwc_hwc_1x28x28x144x3x3"} : () -> ()
    }) : () -> ()
    "stream.executable.end"() : () -> ()
  }) {sym_name = "main_dispatch_15", sym_visibility = "private"} : () -> ()
  "stream.executable"() ({
    "stream.executable.export"() ({
    ^bb0(%arg0: index, %arg1: index):
      %0:3 = "flow.dispatch.workgroup_count_from_dag_root"(%arg0, %arg1) : (index, index) -> (index, index, index)
      "stream.return"(%0#0, %0#1, %0#2) : (index, index, index) -> ()
    }) {function_ref = @main_dispatch_16_matmul_784x32x144, sym_name = "main_dispatch_16_matmul_784x32x144"} : () -> ()
    "builtin.module"() ({
      "func.func"() ({
      ^bb0(%arg0: !stream.binding, %arg1: !stream.binding, %arg2: !stream.binding):
        %0 = "arith.constant"() {value = 0 : index} : () -> index
        %1 = "arith.constant"() {value = 13873728 : index} : () -> index
        %2 = "arith.constant"() {value = 451584 : index} : () -> index
        %3 = "arith.constant"() {value = 0.000000e+00 : f32} : () -> f32
        %4 = "arith.constant"() {value = dense_resource<__elided__> : tensor<32xf32>} : () -> tensor<32xf32>
        %5 = "stream.binding.subspan"(%arg0, %0) : (!stream.binding, index) -> !flow.dispatch.tensor<readonly:tensor<784x144xf32>>
        %6 = "stream.binding.subspan"(%arg1, %1) : (!stream.binding, index) -> !flow.dispatch.tensor<readonly:tensor<144x32xf32>>
        %7 = "stream.binding.subspan"(%arg2, %2) : (!stream.binding, index) -> !flow.dispatch.tensor<writeonly:tensor<784x32xf32>>
        %8 = "flow.dispatch.tensor.load"(%5) {operand_segment_sizes = array<i32: 1, 0, 0, 0, 0>, static_offsets = array<i64: 0, 0>, static_sizes = array<i64: 784, 144>, static_strides = array<i64: 1, 1>} : (!flow.dispatch.tensor<readonly:tensor<784x144xf32>>) -> tensor<784x144xf32>
        %9 = "flow.dispatch.tensor.load"(%6) {operand_segment_sizes = array<i32: 1, 0, 0, 0, 0>, static_offsets = array<i64: 0, 0>, static_sizes = array<i64: 144, 32>, static_strides = array<i64: 1, 1>} : (!flow.dispatch.tensor<readonly:tensor<144x32xf32>>) -> tensor<144x32xf32>
        %10 = "tensor.empty"() : () -> tensor<784x32xf32>
        %11 = "linalg.fill"(%3, %10) ({
        ^bb0(%arg3: f32, %arg4: f32):
          "linalg.yield"(%arg3) : (f32) -> ()
        }) {operand_segment_sizes = array<i32: 1, 1>} : (f32, tensor<784x32xf32>) -> tensor<784x32xf32>
        %12 = "linalg.matmul"(%8, %9, %11) ({
        ^bb0(%arg3: f32, %arg4: f32, %arg5: f32):
          %14 = "arith.mulf"(%arg3, %arg4) {fastmath = #arith.fastmath<none>} : (f32, f32) -> f32
          %15 = "arith.addf"(%arg5, %14) {fastmath = #arith.fastmath<none>} : (f32, f32) -> f32
          "linalg.yield"(%15) : (f32) -> ()
        }) {linalg.memoized_indexing_maps = [affine_map<(d0, d1, d2) -> (d0, d2)>, affine_map<(d0, d1, d2) -> (d2, d1)>, affine_map<(d0, d1, d2) -> (d0, d1)>], operand_segment_sizes = array<i32: 2, 1>} : (tensor<784x144xf32>, tensor<144x32xf32>, tensor<784x32xf32>) -> tensor<784x32xf32>
        %13 = "linalg.generic"(%4, %12, %10) ({
        ^bb0(%arg3: f32, %arg4: f32, %arg5: f32):
          %14 = "arith.addf"(%arg3, %arg4) {fastmath = #arith.fastmath<none>} : (f32, f32) -> f32
          "linalg.yield"(%14) : (f32) -> ()
        }) {indexing_maps = [affine_map<(d0, d1) -> (d1)>, affine_map<(d0, d1) -> (d0, d1)>, affine_map<(d0, d1) -> (d0, d1)>], iterator_types = [#linalg.iterator_type<parallel>, #linalg.iterator_type<parallel>], operand_segment_sizes = array<i32: 2, 1>} : (tensor<32xf32>, tensor<784x32xf32>, tensor<784x32xf32>) -> tensor<784x32xf32>
        "flow.dispatch.tensor.store"(%13, %7) {operand_segment_sizes = array<i32: 1, 1, 0, 0, 0, 0>, static_offsets = array<i64: 0, 0>, static_sizes = array<i64: 784, 32>, static_strides = array<i64: 1, 1>} : (tensor<784x32xf32>, !flow.dispatch.tensor<writeonly:tensor<784x32xf32>>) -> ()
        "func.return"() : () -> ()
      }) {arg_attrs = [{stream.alignment = 64 : index}, {stream.alignment = 64 : index}, {stream.alignment = 64 : index}], function_type = (!stream.binding, !stream.binding, !stream.binding) -> (), sym_name = "main_dispatch_16_matmul_784x32x144"} : () -> ()
    }) : () -> ()
    "stream.executable.end"() : () -> ()
  }) {sym_name = "main_dispatch_16", sym_visibility = "private"} : () -> ()
  "stream.executable"() ({
    "stream.executable.export"() ({
    ^bb0(%arg0: index, %arg1: index):
      %0:3 = "flow.dispatch.workgroup_count_from_dag_root"(%arg0, %arg1) : (index, index) -> (index, index, index)
      "stream.return"(%0#0, %0#1, %0#2) : (index, index, index) -> ()
    }) {function_ref = @main_dispatch_17_matmul_784x192x32, sym_name = "main_dispatch_17_matmul_784x192x32"} : () -> ()
    "builtin.module"() ({
      "func.func"() ({
      ^bb0(%arg0: !stream.binding, %arg1: !stream.binding, %arg2: !stream.binding, %arg3: i32, %arg4: i32, %arg5: i32, %arg6: i32):
        %0 = "arith.constant"() {value = 6.000000e+00 : f32} : () -> f32
        %1 = "arith.constant"() {value = 0.000000e+00 : f32} : () -> f32
        %2 = "arith.index_castui"(%arg3) {stream.alignment = 1024 : index, stream.values = [0 : index, 451584 : index, 702464 : index]} : (i32) -> index
        %3 = "arith.index_castui"(%arg4) {stream.alignment = 64 : index, stream.values = [13750848 : index, 13800000 : index, 13849152 : index]} : (i32) -> index
        %4 = "arith.index_castui"(%arg5) {stream.alignment = 64 : index, stream.values = [320320 : index, 321856 : index, 323392 : index]} : (i32) -> index
        %5 = "arith.index_castui"(%arg6) {stream.alignment = 1024 : index, stream.values = [0 : index, 100352 : index, 551936 : index]} : (i32) -> index
        %6 = "stream.binding.subspan"(%arg0, %2) : (!stream.binding, index) -> !flow.dispatch.tensor<readonly:tensor<784x32xf32>>
        %7 = "stream.binding.subspan"(%arg1, %3) : (!stream.binding, index) -> !flow.dispatch.tensor<readonly:tensor<32x192xf32>>
        %8 = "stream.binding.subspan"(%arg1, %4) : (!stream.binding, index) -> !flow.dispatch.tensor<readonly:tensor<192xf32>>
        %9 = "stream.binding.subspan"(%arg2, %5) : (!stream.binding, index) -> !flow.dispatch.tensor<writeonly:tensor<784x192xf32>>
        %10 = "flow.dispatch.tensor.load"(%6) {operand_segment_sizes = array<i32: 1, 0, 0, 0, 0>, static_offsets = array<i64: 0, 0>, static_sizes = array<i64: 784, 32>, static_strides = array<i64: 1, 1>} : (!flow.dispatch.tensor<readonly:tensor<784x32xf32>>) -> tensor<784x32xf32>
        %11 = "flow.dispatch.tensor.load"(%7) {operand_segment_sizes = array<i32: 1, 0, 0, 0, 0>, static_offsets = array<i64: 0, 0>, static_sizes = array<i64: 32, 192>, static_strides = array<i64: 1, 1>} : (!flow.dispatch.tensor<readonly:tensor<32x192xf32>>) -> tensor<32x192xf32>
        %12 = "flow.dispatch.tensor.load"(%8) {operand_segment_sizes = array<i32: 1, 0, 0, 0, 0>, static_offsets = array<i64: 0>, static_sizes = array<i64: 192>, static_strides = array<i64: 1>} : (!flow.dispatch.tensor<readonly:tensor<192xf32>>) -> tensor<192xf32>
        %13 = "tensor.empty"() : () -> tensor<784x192xf32>
        %14 = "linalg.fill"(%1, %13) ({
        ^bb0(%arg7: f32, %arg8: f32):
          "linalg.yield"(%arg7) : (f32) -> ()
        }) {operand_segment_sizes = array<i32: 1, 1>} : (f32, tensor<784x192xf32>) -> tensor<784x192xf32>
        %15 = "linalg.matmul"(%10, %11, %14) ({
        ^bb0(%arg7: f32, %arg8: f32, %arg9: f32):
          %17 = "arith.mulf"(%arg7, %arg8) {fastmath = #arith.fastmath<none>} : (f32, f32) -> f32
          %18 = "arith.addf"(%arg9, %17) {fastmath = #arith.fastmath<none>} : (f32, f32) -> f32
          "linalg.yield"(%18) : (f32) -> ()
        }) {linalg.memoized_indexing_maps = [affine_map<(d0, d1, d2) -> (d0, d2)>, affine_map<(d0, d1, d2) -> (d2, d1)>, affine_map<(d0, d1, d2) -> (d0, d1)>], operand_segment_sizes = array<i32: 2, 1>} : (tensor<784x32xf32>, tensor<32x192xf32>, tensor<784x192xf32>) -> tensor<784x192xf32>
        %16 = "linalg.generic"(%12, %15, %13) ({
        ^bb0(%arg7: f32, %arg8: f32, %arg9: f32):
          %17 = "arith.addf"(%arg7, %arg8) {fastmath = #arith.fastmath<none>} : (f32, f32) -> f32
          %18 = "arith.minf"(%17, %0) {fastmath = #arith.fastmath<none>} : (f32, f32) -> f32
          %19 = "arith.maxf"(%18, %1) {fastmath = #arith.fastmath<none>} : (f32, f32) -> f32
          "linalg.yield"(%19) : (f32) -> ()
        }) {indexing_maps = [affine_map<(d0, d1) -> (d1)>, affine_map<(d0, d1) -> (d0, d1)>, affine_map<(d0, d1) -> (d0, d1)>], iterator_types = [#linalg.iterator_type<parallel>, #linalg.iterator_type<parallel>], operand_segment_sizes = array<i32: 2, 1>} : (tensor<192xf32>, tensor<784x192xf32>, tensor<784x192xf32>) -> tensor<784x192xf32>
        "flow.dispatch.tensor.store"(%16, %9) {operand_segment_sizes = array<i32: 1, 1, 0, 0, 0, 0>, static_offsets = array<i64: 0, 0>, static_sizes = array<i64: 784, 192>, static_strides = array<i64: 1, 1>} : (tensor<784x192xf32>, !flow.dispatch.tensor<writeonly:tensor<784x192xf32>>) -> ()
        "func.return"() : () -> ()
      }) {arg_attrs = [{stream.alignment = 64 : index}, {stream.alignment = 64 : index}, {stream.alignment = 64 : index}, {}, {}, {}, {}], function_type = (!stream.binding, !stream.binding, !stream.binding, i32, i32, i32, i32) -> (), sym_name = "main_dispatch_17_matmul_784x192x32"} : () -> ()
    }) : () -> ()
    "stream.executable.end"() : () -> ()
  }) {sym_name = "main_dispatch_17", sym_visibility = "private"} : () -> ()
  "stream.executable"() ({
    "stream.executable.export"() ({
    ^bb0(%arg0: index, %arg1: index, %arg2: index):
      %0:3 = "flow.dispatch.workgroup_count_from_dag_root"(%arg0, %arg1, %arg2) : (index, index, index) -> (index, index, index)
      "stream.return"(%0#0, %0#1, %0#2) : (index, index, index) -> ()
    }) {function_ref = @main_dispatch_18, sym_name = "main_dispatch_18"} : () -> ()
    "builtin.module"() ({
      "func.func"() ({
      ^bb0(%arg0: !stream.binding, %arg1: !stream.binding, %arg2: i32, %arg3: i32):
        %0 = "arith.index_castui"(%arg2) {stream.alignment = 1024 : index, stream.values = [100352 : index, 551936 : index]} : (i32) -> index
        %1 = "arith.index_castui"(%arg3) {stream.alignment = 1024 : index, stream.values = [702464 : index, 1154048 : index]} : (i32) -> index
        %2 = "stream.binding.subspan"(%arg0, %0) : (!stream.binding, index) -> !flow.dispatch.tensor<readonly:tensor<28x28x192xf32>>
        %3 = "stream.binding.subspan"(%arg1, %1) : (!stream.binding, index) -> !flow.dispatch.tensor<readwrite:tensor<1x30x30x192xf32>>
        %4 = "flow.dispatch.tensor.load"(%2) {operand_segment_sizes = array<i32: 1, 0, 0, 0, 0>, static_offsets = array<i64: 0, 0, 0>, static_sizes = array<i64: 28, 28, 192>, static_strides = array<i64: 1, 1, 1>} : (!flow.dispatch.tensor<readonly:tensor<28x28x192xf32>>) -> tensor<28x28x192xf32>
        "flow.dispatch.tensor.store"(%4, %3) {operand_segment_sizes = array<i32: 1, 1, 0, 0, 0, 0>, static_offsets = array<i64: 0, 1, 1, 0>, static_sizes = array<i64: 1, 28, 28, 192>, static_strides = array<i64: 1, 1, 1, 1>} : (tensor<28x28x192xf32>, !flow.dispatch.tensor<readwrite:tensor<1x30x30x192xf32>>) -> ()
        "func.return"() : () -> ()
      }) {arg_attrs = [{stream.alignment = 64 : index}, {stream.alignment = 64 : index}, {}, {}], function_type = (!stream.binding, !stream.binding, i32, i32) -> (), sym_name = "main_dispatch_18"} : () -> ()
    }) : () -> ()
    "stream.executable.end"() : () -> ()
  }) {sym_name = "main_dispatch_18", sym_visibility = "private"} : () -> ()
  "stream.executable"() ({
    "stream.executable.export"() ({
    ^bb0(%arg0: index, %arg1: index, %arg2: index, %arg3: index):
      %0:3 = "flow.dispatch.workgroup_count_from_dag_root"(%arg0, %arg1, %arg2, %arg3) : (index, index, index, index) -> (index, index, index)
      "stream.return"(%0#0, %0#1, %0#2) : (index, index, index) -> ()
    }) {function_ref = @main_dispatch_19_depthwise_conv_2d_nhwc_hwc_1x28x28x192x3x3, sym_name = "main_dispatch_19_depthwise_conv_2d_nhwc_hwc_1x28x28x192x3x3"} : () -> ()
    "builtin.module"() ({
      "func.func"() ({
      ^bb0(%arg0: !stream.binding, %arg1: !stream.binding, %arg2: !stream.binding, %arg3: i32, %arg4: i32, %arg5: i32, %arg6: i32):
        %0 = "arith.constant"() {value = 6.000000e+00 : f32} : () -> f32
        %1 = "arith.constant"() {value = 0.000000e+00 : f32} : () -> f32
        %2 = "arith.index_castui"(%arg3) {stream.alignment = 1024 : index, stream.values = [702464 : index, 1154048 : index]} : (i32) -> index
        %3 = "arith.index_castui"(%arg4) {stream.alignment = 64 : index, stream.values = [19008 : index, 25920 : index]} : (i32) -> index
        %4 = "arith.index_castui"(%arg5) {stream.alignment = 64 : index, stream.values = [321088 : index, 322624 : index]} : (i32) -> index
        %5 = "arith.index_castui"(%arg6) {stream.alignment = 1024 : index, stream.values = [100352 : index, 551936 : index]} : (i32) -> index
        %6 = "stream.binding.subspan"(%arg0, %2) : (!stream.binding, index) -> !flow.dispatch.tensor<readonly:tensor<1x30x30x192xf32>>
        %7 = "stream.binding.subspan"(%arg1, %3) : (!stream.binding, index) -> !flow.dispatch.tensor<readonly:tensor<3x3x192xf32>>
        %8 = "stream.binding.subspan"(%arg1, %4) : (!stream.binding, index) -> !flow.dispatch.tensor<readonly:tensor<192xf32>>
        %9 = "stream.binding.subspan"(%arg2, %5) : (!stream.binding, index) -> !flow.dispatch.tensor<writeonly:tensor<1x28x28x192xf32>>
        %10 = "flow.dispatch.tensor.load"(%6) {operand_segment_sizes = array<i32: 1, 0, 0, 0, 0>, static_offsets = array<i64: 0, 0, 0, 0>, static_sizes = array<i64: 1, 30, 30, 192>, static_strides = array<i64: 1, 1, 1, 1>} : (!flow.dispatch.tensor<readonly:tensor<1x30x30x192xf32>>) -> tensor<1x30x30x192xf32>
        %11 = "flow.dispatch.tensor.load"(%7) {operand_segment_sizes = array<i32: 1, 0, 0, 0, 0>, static_offsets = array<i64: 0, 0, 0>, static_sizes = array<i64: 3, 3, 192>, static_strides = array<i64: 1, 1, 1>} : (!flow.dispatch.tensor<readonly:tensor<3x3x192xf32>>) -> tensor<3x3x192xf32>
        %12 = "flow.dispatch.tensor.load"(%8) {operand_segment_sizes = array<i32: 1, 0, 0, 0, 0>, static_offsets = array<i64: 0>, static_sizes = array<i64: 192>, static_strides = array<i64: 1>} : (!flow.dispatch.tensor<readonly:tensor<192xf32>>) -> tensor<192xf32>
        %13 = "tensor.empty"() : () -> tensor<1x28x28x192xf32>
        %14 = "linalg.fill"(%1, %13) ({
        ^bb0(%arg7: f32, %arg8: f32):
          "linalg.yield"(%arg7) : (f32) -> ()
        }) {operand_segment_sizes = array<i32: 1, 1>} : (f32, tensor<1x28x28x192xf32>) -> tensor<1x28x28x192xf32>
        %15 = "linalg.depthwise_conv_2d_nhwc_hwc"(%10, %11, %14) ({
        ^bb0(%arg7: f32, %arg8: f32, %arg9: f32):
          %17 = "arith.mulf"(%arg7, %arg8) {fastmath = #arith.fastmath<none>} : (f32, f32) -> f32
          %18 = "arith.addf"(%arg9, %17) {fastmath = #arith.fastmath<none>} : (f32, f32) -> f32
          "linalg.yield"(%18) : (f32) -> ()
        }) {dilations = dense<1> : tensor<2xi64>, linalg.memoized_indexing_maps = [affine_map<(d0, d1, d2, d3, d4, d5) -> (d0, d1 + d4, d2 + d5, d3)>, affine_map<(d0, d1, d2, d3, d4, d5) -> (d4, d5, d3)>, affine_map<(d0, d1, d2, d3, d4, d5) -> (d0, d1, d2, d3)>], operand_segment_sizes = array<i32: 2, 1>, strides = dense<1> : tensor<2xi64>} : (tensor<1x30x30x192xf32>, tensor<3x3x192xf32>, tensor<1x28x28x192xf32>) -> tensor<1x28x28x192xf32>
        %16 = "linalg.generic"(%12, %15, %13) ({
        ^bb0(%arg7: f32, %arg8: f32, %arg9: f32):
          %17 = "arith.addf"(%arg7, %arg8) {fastmath = #arith.fastmath<none>} : (f32, f32) -> f32
          %18 = "arith.minf"(%17, %0) {fastmath = #arith.fastmath<none>} : (f32, f32) -> f32
          %19 = "arith.maxf"(%18, %1) {fastmath = #arith.fastmath<none>} : (f32, f32) -> f32
          "linalg.yield"(%19) : (f32) -> ()
        }) {indexing_maps = [affine_map<(d0, d1, d2, d3) -> (d3)>, affine_map<(d0, d1, d2, d3) -> (d0, d1, d2, d3)>, affine_map<(d0, d1, d2, d3) -> (d0, d1, d2, d3)>], iterator_types = [#linalg.iterator_type<parallel>, #linalg.iterator_type<parallel>, #linalg.iterator_type<parallel>, #linalg.iterator_type<parallel>], operand_segment_sizes = array<i32: 2, 1>} : (tensor<192xf32>, tensor<1x28x28x192xf32>, tensor<1x28x28x192xf32>) -> tensor<1x28x28x192xf32>
        "flow.dispatch.tensor.store"(%16, %9) {operand_segment_sizes = array<i32: 1, 1, 0, 0, 0, 0>, static_offsets = array<i64: 0, 0, 0, 0>, static_sizes = array<i64: 1, 28, 28, 192>, static_strides = array<i64: 1, 1, 1, 1>} : (tensor<1x28x28x192xf32>, !flow.dispatch.tensor<writeonly:tensor<1x28x28x192xf32>>) -> ()
        "func.return"() : () -> ()
      }) {arg_attrs = [{stream.alignment = 64 : index}, {stream.alignment = 64 : index}, {stream.alignment = 64 : index}, {}, {}, {}, {}], function_type = (!stream.binding, !stream.binding, !stream.binding, i32, i32, i32, i32) -> (), sym_name = "main_dispatch_19_depthwise_conv_2d_nhwc_hwc_1x28x28x192x3x3"} : () -> ()
    }) : () -> ()
    "stream.executable.end"() : () -> ()
  }) {sym_name = "main_dispatch_19", sym_visibility = "private"} : () -> ()
  "stream.executable"() ({
    "stream.executable.export"() ({
    ^bb0(%arg0: index, %arg1: index):
      %0:3 = "flow.dispatch.workgroup_count_from_dag_root"(%arg0, %arg1) : (index, index) -> (index, index, index)
      "stream.return"(%0#0, %0#1, %0#2) : (index, index, index) -> ()
    }) {function_ref = @main_dispatch_20_matmul_784x32x192, sym_name = "main_dispatch_20_matmul_784x32x192"} : () -> ()
    "builtin.module"() ({
      "func.func"() ({
      ^bb0(%arg0: !stream.binding, %arg1: !stream.binding, %arg2: !stream.binding):
        %0 = "arith.constant"() {value = 551936 : index} : () -> index
        %1 = "arith.constant"() {value = 451584 : index} : () -> index
        %2 = "arith.constant"() {value = 13824576 : index} : () -> index
        %3 = "arith.constant"() {value = 0 : index} : () -> index
        %4 = "arith.constant"() {value = 0.000000e+00 : f32} : () -> f32
        %5 = "arith.constant"() {value = dense_resource<__elided__> : tensor<32xf32>} : () -> tensor<32xf32>
        %6 = "stream.binding.subspan"(%arg0, %0) : (!stream.binding, index) -> !flow.dispatch.tensor<readonly:tensor<784x192xf32>>
        %7 = "stream.binding.subspan"(%arg1, %2) : (!stream.binding, index) -> !flow.dispatch.tensor<readonly:tensor<192x32xf32>>
        %8 = "stream.binding.subspan"(%arg0, %1) : (!stream.binding, index) -> !flow.dispatch.tensor<readonly:tensor<784x32xf32>>
        %9 = "stream.binding.subspan"(%arg2, %3) : (!stream.binding, index) -> !flow.dispatch.tensor<writeonly:tensor<784x32xf32>>
        %10 = "flow.dispatch.tensor.load"(%6) {operand_segment_sizes = array<i32: 1, 0, 0, 0, 0>, static_offsets = array<i64: 0, 0>, static_sizes = array<i64: 784, 192>, static_strides = array<i64: 1, 1>} : (!flow.dispatch.tensor<readonly:tensor<784x192xf32>>) -> tensor<784x192xf32>
        %11 = "flow.dispatch.tensor.load"(%7) {operand_segment_sizes = array<i32: 1, 0, 0, 0, 0>, static_offsets = array<i64: 0, 0>, static_sizes = array<i64: 192, 32>, static_strides = array<i64: 1, 1>} : (!flow.dispatch.tensor<readonly:tensor<192x32xf32>>) -> tensor<192x32xf32>
        %12 = "flow.dispatch.tensor.load"(%8) {operand_segment_sizes = array<i32: 1, 0, 0, 0, 0>, static_offsets = array<i64: 0, 0>, static_sizes = array<i64: 784, 32>, static_strides = array<i64: 1, 1>} : (!flow.dispatch.tensor<readonly:tensor<784x32xf32>>) -> tensor<784x32xf32>
        %13 = "tensor.empty"() : () -> tensor<784x32xf32>
        %14 = "linalg.fill"(%4, %13) ({
        ^bb0(%arg3: f32, %arg4: f32):
          "linalg.yield"(%arg3) : (f32) -> ()
        }) {operand_segment_sizes = array<i32: 1, 1>} : (f32, tensor<784x32xf32>) -> tensor<784x32xf32>
        %15 = "linalg.matmul"(%10, %11, %14) ({
        ^bb0(%arg3: f32, %arg4: f32, %arg5: f32):
          %17 = "arith.mulf"(%arg3, %arg4) {fastmath = #arith.fastmath<none>} : (f32, f32) -> f32
          %18 = "arith.addf"(%arg5, %17) {fastmath = #arith.fastmath<none>} : (f32, f32) -> f32
          "linalg.yield"(%18) : (f32) -> ()
        }) {linalg.memoized_indexing_maps = [affine_map<(d0, d1, d2) -> (d0, d2)>, affine_map<(d0, d1, d2) -> (d2, d1)>, affine_map<(d0, d1, d2) -> (d0, d1)>], operand_segment_sizes = array<i32: 2, 1>} : (tensor<784x192xf32>, tensor<192x32xf32>, tensor<784x32xf32>) -> tensor<784x32xf32>
        %16 = "linalg.generic"(%5, %15, %12, %13) ({
        ^bb0(%arg3: f32, %arg4: f32, %arg5: f32, %arg6: f32):
          %17 = "arith.addf"(%arg3, %arg4) {fastmath = #arith.fastmath<none>} : (f32, f32) -> f32
          %18 = "arith.addf"(%17, %arg5) {fastmath = #arith.fastmath<none>} : (f32, f32) -> f32
          "linalg.yield"(%18) : (f32) -> ()
        }) {indexing_maps = [affine_map<(d0, d1) -> (d1)>, affine_map<(d0, d1) -> (d0, d1)>, affine_map<(d0, d1) -> (d0, d1)>, affine_map<(d0, d1) -> (d0, d1)>], iterator_types = [#linalg.iterator_type<parallel>, #linalg.iterator_type<parallel>], operand_segment_sizes = array<i32: 3, 1>} : (tensor<32xf32>, tensor<784x32xf32>, tensor<784x32xf32>, tensor<784x32xf32>) -> tensor<784x32xf32>
        "flow.dispatch.tensor.store"(%16, %9) {operand_segment_sizes = array<i32: 1, 1, 0, 0, 0, 0>, static_offsets = array<i64: 0, 0>, static_sizes = array<i64: 784, 32>, static_strides = array<i64: 1, 1>} : (tensor<784x32xf32>, !flow.dispatch.tensor<writeonly:tensor<784x32xf32>>) -> ()
        "func.return"() : () -> ()
      }) {arg_attrs = [{stream.alignment = 64 : index}, {stream.alignment = 64 : index}, {stream.alignment = 64 : index}], function_type = (!stream.binding, !stream.binding, !stream.binding) -> (), sym_name = "main_dispatch_20_matmul_784x32x192"} : () -> ()
    }) : () -> ()
    "stream.executable.end"() : () -> ()
  }) {sym_name = "main_dispatch_20", sym_visibility = "private"} : () -> ()
  "stream.executable"() ({
    "stream.executable.export"() ({
    ^bb0(%arg0: index, %arg1: index):
      %0:3 = "flow.dispatch.workgroup_count_from_dag_root"(%arg0, %arg1) : (index, index) -> (index, index, index)
      "stream.return"(%0#0, %0#1, %0#2) : (index, index, index) -> ()
    }) {function_ref = @main_dispatch_24_matmul_784x32x192, sym_name = "main_dispatch_24_matmul_784x32x192"} : () -> ()
    "builtin.module"() ({
      "func.func"() ({
      ^bb0(%arg0: !stream.binding, %arg1: !stream.binding, %arg2: !stream.binding):
        %0 = "arith.constant"() {value = 100352 : index} : () -> index
        %1 = "arith.constant"() {value = 0 : index} : () -> index
        %2 = "arith.constant"() {value = 13775424 : index} : () -> index
        %3 = "arith.constant"() {value = 702464 : index} : () -> index
        %4 = "arith.constant"() {value = 0.000000e+00 : f32} : () -> f32
        %5 = "arith.constant"() {value = dense_resource<__elided__> : tensor<32xf32>} : () -> tensor<32xf32>
        %6 = "stream.binding.subspan"(%arg0, %0) : (!stream.binding, index) -> !flow.dispatch.tensor<readonly:tensor<784x192xf32>>
        %7 = "stream.binding.subspan"(%arg1, %2) : (!stream.binding, index) -> !flow.dispatch.tensor<readonly:tensor<192x32xf32>>
        %8 = "stream.binding.subspan"(%arg0, %1) : (!stream.binding, index) -> !flow.dispatch.tensor<readonly:tensor<784x32xf32>>
        %9 = "stream.binding.subspan"(%arg2, %3) : (!stream.binding, index) -> !flow.dispatch.tensor<writeonly:tensor<784x32xf32>>
        %10 = "flow.dispatch.tensor.load"(%6) {operand_segment_sizes = array<i32: 1, 0, 0, 0, 0>, static_offsets = array<i64: 0, 0>, static_sizes = array<i64: 784, 192>, static_strides = array<i64: 1, 1>} : (!flow.dispatch.tensor<readonly:tensor<784x192xf32>>) -> tensor<784x192xf32>
        %11 = "flow.dispatch.tensor.load"(%7) {operand_segment_sizes = array<i32: 1, 0, 0, 0, 0>, static_offsets = array<i64: 0, 0>, static_sizes = array<i64: 192, 32>, static_strides = array<i64: 1, 1>} : (!flow.dispatch.tensor<readonly:tensor<192x32xf32>>) -> tensor<192x32xf32>
        %12 = "flow.dispatch.tensor.load"(%8) {operand_segment_sizes = array<i32: 1, 0, 0, 0, 0>, static_offsets = array<i64: 0, 0>, static_sizes = array<i64: 784, 32>, static_strides = array<i64: 1, 1>} : (!flow.dispatch.tensor<readonly:tensor<784x32xf32>>) -> tensor<784x32xf32>
        %13 = "tensor.empty"() : () -> tensor<784x32xf32>
        %14 = "linalg.fill"(%4, %13) ({
        ^bb0(%arg3: f32, %arg4: f32):
          "linalg.yield"(%arg3) : (f32) -> ()
        }) {operand_segment_sizes = array<i32: 1, 1>} : (f32, tensor<784x32xf32>) -> tensor<784x32xf32>
        %15 = "linalg.matmul"(%10, %11, %14) ({
        ^bb0(%arg3: f32, %arg4: f32, %arg5: f32):
          %17 = "arith.mulf"(%arg3, %arg4) {fastmath = #arith.fastmath<none>} : (f32, f32) -> f32
          %18 = "arith.addf"(%arg5, %17) {fastmath = #arith.fastmath<none>} : (f32, f32) -> f32
          "linalg.yield"(%18) : (f32) -> ()
        }) {linalg.memoized_indexing_maps = [affine_map<(d0, d1, d2) -> (d0, d2)>, affine_map<(d0, d1, d2) -> (d2, d1)>, affine_map<(d0, d1, d2) -> (d0, d1)>], operand_segment_sizes = array<i32: 2, 1>} : (tensor<784x192xf32>, tensor<192x32xf32>, tensor<784x32xf32>) -> tensor<784x32xf32>
        %16 = "linalg.generic"(%5, %15, %12, %13) ({
        ^bb0(%arg3: f32, %arg4: f32, %arg5: f32, %arg6: f32):
          %17 = "arith.addf"(%arg3, %arg4) {fastmath = #arith.fastmath<none>} : (f32, f32) -> f32
          %18 = "arith.addf"(%17, %arg5) {fastmath = #arith.fastmath<none>} : (f32, f32) -> f32
          "linalg.yield"(%18) : (f32) -> ()
        }) {indexing_maps = [affine_map<(d0, d1) -> (d1)>, affine_map<(d0, d1) -> (d0, d1)>, affine_map<(d0, d1) -> (d0, d1)>, affine_map<(d0, d1) -> (d0, d1)>], iterator_types = [#linalg.iterator_type<parallel>, #linalg.iterator_type<parallel>], operand_segment_sizes = array<i32: 3, 1>} : (tensor<32xf32>, tensor<784x32xf32>, tensor<784x32xf32>, tensor<784x32xf32>) -> tensor<784x32xf32>
        "flow.dispatch.tensor.store"(%16, %9) {operand_segment_sizes = array<i32: 1, 1, 0, 0, 0, 0>, static_offsets = array<i64: 0, 0>, static_sizes = array<i64: 784, 32>, static_strides = array<i64: 1, 1>} : (tensor<784x32xf32>, !flow.dispatch.tensor<writeonly:tensor<784x32xf32>>) -> ()
        "func.return"() : () -> ()
      }) {arg_attrs = [{stream.alignment = 64 : index}, {stream.alignment = 64 : index}, {stream.alignment = 64 : index}], function_type = (!stream.binding, !stream.binding, !stream.binding) -> (), sym_name = "main_dispatch_24_matmul_784x32x192"} : () -> ()
    }) : () -> ()
    "stream.executable.end"() : () -> ()
  }) {sym_name = "main_dispatch_24", sym_visibility = "private"} : () -> ()
  "stream.executable"() ({
    "stream.executable.export"() ({
    ^bb0(%arg0: index, %arg1: index, %arg2: index):
      %0:3 = "flow.dispatch.workgroup_count_from_dag_root"(%arg0, %arg1, %arg2) : (index, index, index) -> (index, index, index)
      "stream.return"(%0#0, %0#1, %0#2) : (index, index, index) -> ()
    }) {function_ref = @main_dispatch_26, sym_name = "main_dispatch_26"} : () -> ()
    "builtin.module"() ({
      "func.func"() ({
      ^bb0(%arg0: !stream.binding, %arg1: !stream.binding):
        %0 = "arith.constant"() {value = 0 : index} : () -> index
        %1 = "arith.constant"() {value = 802816 : index} : () -> index
        %2 = "stream.binding.subspan"(%arg0, %0) : (!stream.binding, index) -> !flow.dispatch.tensor<readonly:tensor<28x28x192xf32>>
        %3 = "stream.binding.subspan"(%arg1, %1) : (!stream.binding, index) -> !flow.dispatch.tensor<readwrite:tensor<1x29x29x192xf32>>
        %4 = "flow.dispatch.tensor.load"(%2) {operand_segment_sizes = array<i32: 1, 0, 0, 0, 0>, static_offsets = array<i64: 0, 0, 0>, static_sizes = array<i64: 28, 28, 192>, static_strides = array<i64: 1, 1, 1>} : (!flow.dispatch.tensor<readonly:tensor<28x28x192xf32>>) -> tensor<28x28x192xf32>
        "flow.dispatch.tensor.store"(%4, %3) {operand_segment_sizes = array<i32: 1, 1, 0, 0, 0, 0>, static_offsets = array<i64: 0, 0, 0, 0>, static_sizes = array<i64: 1, 28, 28, 192>, static_strides = array<i64: 1, 1, 1, 1>} : (tensor<28x28x192xf32>, !flow.dispatch.tensor<readwrite:tensor<1x29x29x192xf32>>) -> ()
        "func.return"() : () -> ()
      }) {arg_attrs = [{stream.alignment = 64 : index}, {stream.alignment = 64 : index}], function_type = (!stream.binding, !stream.binding) -> (), sym_name = "main_dispatch_26"} : () -> ()
    }) : () -> ()
    "stream.executable.end"() : () -> ()
  }) {sym_name = "main_dispatch_26", sym_visibility = "private"} : () -> ()
  "stream.executable"() ({
    "stream.executable.export"() ({
    ^bb0(%arg0: index, %arg1: index, %arg2: index, %arg3: index):
      %0:3 = "flow.dispatch.workgroup_count_from_dag_root"(%arg0, %arg1, %arg2, %arg3) : (index, index, index, index) -> (index, index, index)
      "stream.return"(%0#0, %0#1, %0#2) : (index, index, index) -> ()
    }) {function_ref = @main_dispatch_27_depthwise_conv_2d_nhwc_hwc_1x14x14x192x3x3, sym_name = "main_dispatch_27_depthwise_conv_2d_nhwc_hwc_1x14x14x192x3x3"} : () -> ()
    "builtin.module"() ({
      "func.func"() ({
      ^bb0(%arg0: !stream.binding, %arg1: !stream.binding, %arg2: !stream.binding):
        %0 = "arith.constant"() {value = 802816 : index} : () -> index
        %1 = "arith.constant"() {value = 32832 : index} : () -> index
        %2 = "arith.constant"() {value = 319552 : index} : () -> index
        %3 = "arith.constant"() {value = 0 : index} : () -> index
        %4 = "arith.constant"() {value = 6.000000e+00 : f32} : () -> f32
        %5 = "arith.constant"() {value = 0.000000e+00 : f32} : () -> f32
        %6 = "stream.binding.subspan"(%arg0, %0) : (!stream.binding, index) -> !flow.dispatch.tensor<readonly:tensor<1x29x29x192xf32>>
        %7 = "stream.binding.subspan"(%arg1, %1) : (!stream.binding, index) -> !flow.dispatch.tensor<readonly:tensor<3x3x192xf32>>
        %8 = "stream.binding.subspan"(%arg1, %2) : (!stream.binding, index) -> !flow.dispatch.tensor<readonly:tensor<192xf32>>
        %9 = "stream.binding.subspan"(%arg2, %3) : (!stream.binding, index) -> !flow.dispatch.tensor<writeonly:tensor<1x14x14x192xf32>>
        %10 = "flow.dispatch.tensor.load"(%6) {operand_segment_sizes = array<i32: 1, 0, 0, 0, 0>, static_offsets = array<i64: 0, 0, 0, 0>, static_sizes = array<i64: 1, 29, 29, 192>, static_strides = array<i64: 1, 1, 1, 1>} : (!flow.dispatch.tensor<readonly:tensor<1x29x29x192xf32>>) -> tensor<1x29x29x192xf32>
        %11 = "flow.dispatch.tensor.load"(%7) {operand_segment_sizes = array<i32: 1, 0, 0, 0, 0>, static_offsets = array<i64: 0, 0, 0>, static_sizes = array<i64: 3, 3, 192>, static_strides = array<i64: 1, 1, 1>} : (!flow.dispatch.tensor<readonly:tensor<3x3x192xf32>>) -> tensor<3x3x192xf32>
        %12 = "flow.dispatch.tensor.load"(%8) {operand_segment_sizes = array<i32: 1, 0, 0, 0, 0>, static_offsets = array<i64: 0>, static_sizes = array<i64: 192>, static_strides = array<i64: 1>} : (!flow.dispatch.tensor<readonly:tensor<192xf32>>) -> tensor<192xf32>
        %13 = "tensor.empty"() : () -> tensor<1x14x14x192xf32>
        %14 = "linalg.fill"(%5, %13) ({
        ^bb0(%arg3: f32, %arg4: f32):
          "linalg.yield"(%arg3) : (f32) -> ()
        }) {operand_segment_sizes = array<i32: 1, 1>} : (f32, tensor<1x14x14x192xf32>) -> tensor<1x14x14x192xf32>
        %15 = "linalg.depthwise_conv_2d_nhwc_hwc"(%10, %11, %14) ({
        ^bb0(%arg3: f32, %arg4: f32, %arg5: f32):
          %17 = "arith.mulf"(%arg3, %arg4) {fastmath = #arith.fastmath<none>} : (f32, f32) -> f32
          %18 = "arith.addf"(%arg5, %17) {fastmath = #arith.fastmath<none>} : (f32, f32) -> f32
          "linalg.yield"(%18) : (f32) -> ()
        }) {dilations = dense<1> : tensor<2xi64>, linalg.memoized_indexing_maps = [affine_map<(d0, d1, d2, d3, d4, d5) -> (d0, d1 * 2 + d4, d2 * 2 + d5, d3)>, affine_map<(d0, d1, d2, d3, d4, d5) -> (d4, d5, d3)>, affine_map<(d0, d1, d2, d3, d4, d5) -> (d0, d1, d2, d3)>], operand_segment_sizes = array<i32: 2, 1>, strides = dense<2> : tensor<2xi64>} : (tensor<1x29x29x192xf32>, tensor<3x3x192xf32>, tensor<1x14x14x192xf32>) -> tensor<1x14x14x192xf32>
        %16 = "linalg.generic"(%12, %15, %13) ({
        ^bb0(%arg3: f32, %arg4: f32, %arg5: f32):
          %17 = "arith.addf"(%arg3, %arg4) {fastmath = #arith.fastmath<none>} : (f32, f32) -> f32
          %18 = "arith.minf"(%17, %4) {fastmath = #arith.fastmath<none>} : (f32, f32) -> f32
          %19 = "arith.maxf"(%18, %5) {fastmath = #arith.fastmath<none>} : (f32, f32) -> f32
          "linalg.yield"(%19) : (f32) -> ()
        }) {indexing_maps = [affine_map<(d0, d1, d2, d3) -> (d3)>, affine_map<(d0, d1, d2, d3) -> (d0, d1, d2, d3)>, affine_map<(d0, d1, d2, d3) -> (d0, d1, d2, d3)>], iterator_types = [#linalg.iterator_type<parallel>, #linalg.iterator_type<parallel>, #linalg.iterator_type<parallel>, #linalg.iterator_type<parallel>], operand_segment_sizes = array<i32: 2, 1>} : (tensor<192xf32>, tensor<1x14x14x192xf32>, tensor<1x14x14x192xf32>) -> tensor<1x14x14x192xf32>
        "flow.dispatch.tensor.store"(%16, %9) {operand_segment_sizes = array<i32: 1, 1, 0, 0, 0, 0>, static_offsets = array<i64: 0, 0, 0, 0>, static_sizes = array<i64: 1, 14, 14, 192>, static_strides = array<i64: 1, 1, 1, 1>} : (tensor<1x14x14x192xf32>, !flow.dispatch.tensor<writeonly:tensor<1x14x14x192xf32>>) -> ()
        "func.return"() : () -> ()
      }) {arg_attrs = [{stream.alignment = 64 : index}, {stream.alignment = 64 : index}, {stream.alignment = 64 : index}], function_type = (!stream.binding, !stream.binding, !stream.binding) -> (), sym_name = "main_dispatch_27_depthwise_conv_2d_nhwc_hwc_1x14x14x192x3x3"} : () -> ()
    }) : () -> ()
    "stream.executable.end"() : () -> ()
  }) {sym_name = "main_dispatch_27", sym_visibility = "private"} : () -> ()
  "stream.executable"() ({
    "stream.executable.export"() ({
    ^bb0(%arg0: index, %arg1: index):
      %0:3 = "flow.dispatch.workgroup_count_from_dag_root"(%arg0, %arg1) : (index, index) -> (index, index, index)
      "stream.return"(%0#0, %0#1, %0#2) : (index, index, index) -> ()
    }) {function_ref = @main_dispatch_28_matmul_196x64x192, sym_name = "main_dispatch_28_matmul_196x64x192"} : () -> ()
    "builtin.module"() ({
      "func.func"() ({
      ^bb0(%arg0: !stream.binding, %arg1: !stream.binding, %arg2: !stream.binding):
        %0 = "arith.constant"() {value = 0 : index} : () -> index
        %1 = "arith.constant"() {value = 13701696 : index} : () -> index
        %2 = "arith.constant"() {value = 150528 : index} : () -> index
        %3 = "arith.constant"() {value = 0.000000e+00 : f32} : () -> f32
        %4 = "arith.constant"() {value = dense_resource<__elided__> : tensor<64xf32>} : () -> tensor<64xf32>
        %5 = "stream.binding.subspan"(%arg0, %0) : (!stream.binding, index) -> !flow.dispatch.tensor<readonly:tensor<196x192xf32>>
        %6 = "stream.binding.subspan"(%arg1, %1) : (!stream.binding, index) -> !flow.dispatch.tensor<readonly:tensor<192x64xf32>>
        %7 = "stream.binding.subspan"(%arg2, %2) : (!stream.binding, index) -> !flow.dispatch.tensor<writeonly:tensor<196x64xf32>>
        %8 = "flow.dispatch.tensor.load"(%5) {operand_segment_sizes = array<i32: 1, 0, 0, 0, 0>, static_offsets = array<i64: 0, 0>, static_sizes = array<i64: 196, 192>, static_strides = array<i64: 1, 1>} : (!flow.dispatch.tensor<readonly:tensor<196x192xf32>>) -> tensor<196x192xf32>
        %9 = "flow.dispatch.tensor.load"(%6) {operand_segment_sizes = array<i32: 1, 0, 0, 0, 0>, static_offsets = array<i64: 0, 0>, static_sizes = array<i64: 192, 64>, static_strides = array<i64: 1, 1>} : (!flow.dispatch.tensor<readonly:tensor<192x64xf32>>) -> tensor<192x64xf32>
        %10 = "tensor.empty"() : () -> tensor<196x64xf32>
        %11 = "linalg.fill"(%3, %10) ({
        ^bb0(%arg3: f32, %arg4: f32):
          "linalg.yield"(%arg3) : (f32) -> ()
        }) {operand_segment_sizes = array<i32: 1, 1>} : (f32, tensor<196x64xf32>) -> tensor<196x64xf32>
        %12 = "linalg.matmul"(%8, %9, %11) ({
        ^bb0(%arg3: f32, %arg4: f32, %arg5: f32):
          %14 = "arith.mulf"(%arg3, %arg4) {fastmath = #arith.fastmath<none>} : (f32, f32) -> f32
          %15 = "arith.addf"(%arg5, %14) {fastmath = #arith.fastmath<none>} : (f32, f32) -> f32
          "linalg.yield"(%15) : (f32) -> ()
        }) {linalg.memoized_indexing_maps = [affine_map<(d0, d1, d2) -> (d0, d2)>, affine_map<(d0, d1, d2) -> (d2, d1)>, affine_map<(d0, d1, d2) -> (d0, d1)>], operand_segment_sizes = array<i32: 2, 1>} : (tensor<196x192xf32>, tensor<192x64xf32>, tensor<196x64xf32>) -> tensor<196x64xf32>
        %13 = "linalg.generic"(%4, %12, %10) ({
        ^bb0(%arg3: f32, %arg4: f32, %arg5: f32):
          %14 = "arith.addf"(%arg3, %arg4) {fastmath = #arith.fastmath<none>} : (f32, f32) -> f32
          "linalg.yield"(%14) : (f32) -> ()
        }) {indexing_maps = [affine_map<(d0, d1) -> (d1)>, affine_map<(d0, d1) -> (d0, d1)>, affine_map<(d0, d1) -> (d0, d1)>], iterator_types = [#linalg.iterator_type<parallel>, #linalg.iterator_type<parallel>], operand_segment_sizes = array<i32: 2, 1>} : (tensor<64xf32>, tensor<196x64xf32>, tensor<196x64xf32>) -> tensor<196x64xf32>
        "flow.dispatch.tensor.store"(%13, %7) {operand_segment_sizes = array<i32: 1, 1, 0, 0, 0, 0>, static_offsets = array<i64: 0, 0>, static_sizes = array<i64: 196, 64>, static_strides = array<i64: 1, 1>} : (tensor<196x64xf32>, !flow.dispatch.tensor<writeonly:tensor<196x64xf32>>) -> ()
        "func.return"() : () -> ()
      }) {arg_attrs = [{stream.alignment = 64 : index}, {stream.alignment = 64 : index}, {stream.alignment = 64 : index}], function_type = (!stream.binding, !stream.binding, !stream.binding) -> (), sym_name = "main_dispatch_28_matmul_196x64x192"} : () -> ()
    }) : () -> ()
    "stream.executable.end"() : () -> ()
  }) {sym_name = "main_dispatch_28", sym_visibility = "private"} : () -> ()
  "stream.executable"() ({
    "stream.executable.export"() ({
    ^bb0(%arg0: index, %arg1: index):
      %0:3 = "flow.dispatch.workgroup_count_from_dag_root"(%arg0, %arg1) : (index, index) -> (index, index, index)
      "stream.return"(%0#0, %0#1, %0#2) : (index, index, index) -> ()
    }) {function_ref = @main_dispatch_29_matmul_196x384x64, sym_name = "main_dispatch_29_matmul_196x384x64"} : () -> ()
    "builtin.module"() ({
      "func.func"() ({
      ^bb0(%arg0: !stream.binding, %arg1: !stream.binding, %arg2: !stream.binding, %arg3: i32, %arg4: i32, %arg5: i32, %arg6: i32):
        %0 = "arith.constant"() {value = 6.000000e+00 : f32} : () -> f32
        %1 = "arith.constant"() {value = 0.000000e+00 : f32} : () -> f32
        %2 = "arith.index_castui"(%arg3) {stream.alignment = 1024 : index, stream.values = [0 : index, 150528 : index, 301056 : index, 351232 : index]} : (i32) -> index
        %3 = "arith.index_castui"(%arg4) {stream.alignment = 64 : index, stream.values = [13013568 : index, 13210176 : index, 13406784 : index, 13603392 : index]} : (i32) -> index
        %4 = "arith.index_castui"(%arg5) {stream.alignment = 64 : index, stream.values = [308800 : index, 311872 : index, 314944 : index, 318016 : index]} : (i32) -> index
        %5 = "arith.index_castui"(%arg6) {stream.alignment = 1024 : index, stream.values = [0 : index, 50176 : index, 200704 : index]} : (i32) -> index
        %6 = "stream.binding.subspan"(%arg0, %2) : (!stream.binding, index) -> !flow.dispatch.tensor<readonly:tensor<196x64xf32>>
        %7 = "stream.binding.subspan"(%arg1, %3) : (!stream.binding, index) -> !flow.dispatch.tensor<readonly:tensor<64x384xf32>>
        %8 = "stream.binding.subspan"(%arg1, %4) : (!stream.binding, index) -> !flow.dispatch.tensor<readonly:tensor<384xf32>>
        %9 = "stream.binding.subspan"(%arg2, %5) : (!stream.binding, index) -> !flow.dispatch.tensor<writeonly:tensor<196x384xf32>>
        %10 = "flow.dispatch.tensor.load"(%6) {operand_segment_sizes = array<i32: 1, 0, 0, 0, 0>, static_offsets = array<i64: 0, 0>, static_sizes = array<i64: 196, 64>, static_strides = array<i64: 1, 1>} : (!flow.dispatch.tensor<readonly:tensor<196x64xf32>>) -> tensor<196x64xf32>
        %11 = "flow.dispatch.tensor.load"(%7) {operand_segment_sizes = array<i32: 1, 0, 0, 0, 0>, static_offsets = array<i64: 0, 0>, static_sizes = array<i64: 64, 384>, static_strides = array<i64: 1, 1>} : (!flow.dispatch.tensor<readonly:tensor<64x384xf32>>) -> tensor<64x384xf32>
        %12 = "flow.dispatch.tensor.load"(%8) {operand_segment_sizes = array<i32: 1, 0, 0, 0, 0>, static_offsets = array<i64: 0>, static_sizes = array<i64: 384>, static_strides = array<i64: 1>} : (!flow.dispatch.tensor<readonly:tensor<384xf32>>) -> tensor<384xf32>
        %13 = "tensor.empty"() : () -> tensor<196x384xf32>
        %14 = "linalg.fill"(%1, %13) ({
        ^bb0(%arg7: f32, %arg8: f32):
          "linalg.yield"(%arg7) : (f32) -> ()
        }) {operand_segment_sizes = array<i32: 1, 1>} : (f32, tensor<196x384xf32>) -> tensor<196x384xf32>
        %15 = "linalg.matmul"(%10, %11, %14) ({
        ^bb0(%arg7: f32, %arg8: f32, %arg9: f32):
          %17 = "arith.mulf"(%arg7, %arg8) {fastmath = #arith.fastmath<none>} : (f32, f32) -> f32
          %18 = "arith.addf"(%arg9, %17) {fastmath = #arith.fastmath<none>} : (f32, f32) -> f32
          "linalg.yield"(%18) : (f32) -> ()
        }) {linalg.memoized_indexing_maps = [affine_map<(d0, d1, d2) -> (d0, d2)>, affine_map<(d0, d1, d2) -> (d2, d1)>, affine_map<(d0, d1, d2) -> (d0, d1)>], operand_segment_sizes = array<i32: 2, 1>} : (tensor<196x64xf32>, tensor<64x384xf32>, tensor<196x384xf32>) -> tensor<196x384xf32>
        %16 = "linalg.generic"(%12, %15, %13) ({
        ^bb0(%arg7: f32, %arg8: f32, %arg9: f32):
          %17 = "arith.addf"(%arg7, %arg8) {fastmath = #arith.fastmath<none>} : (f32, f32) -> f32
          %18 = "arith.minf"(%17, %0) {fastmath = #arith.fastmath<none>} : (f32, f32) -> f32
          %19 = "arith.maxf"(%18, %1) {fastmath = #arith.fastmath<none>} : (f32, f32) -> f32
          "linalg.yield"(%19) : (f32) -> ()
        }) {indexing_maps = [affine_map<(d0, d1) -> (d1)>, affine_map<(d0, d1) -> (d0, d1)>, affine_map<(d0, d1) -> (d0, d1)>], iterator_types = [#linalg.iterator_type<parallel>, #linalg.iterator_type<parallel>], operand_segment_sizes = array<i32: 2, 1>} : (tensor<384xf32>, tensor<196x384xf32>, tensor<196x384xf32>) -> tensor<196x384xf32>
        "flow.dispatch.tensor.store"(%16, %9) {operand_segment_sizes = array<i32: 1, 1, 0, 0, 0, 0>, static_offsets = array<i64: 0, 0>, static_sizes = array<i64: 196, 384>, static_strides = array<i64: 1, 1>} : (tensor<196x384xf32>, !flow.dispatch.tensor<writeonly:tensor<196x384xf32>>) -> ()
        "func.return"() : () -> ()
      }) {arg_attrs = [{stream.alignment = 64 : index}, {stream.alignment = 64 : index}, {stream.alignment = 64 : index}, {}, {}, {}, {}], function_type = (!stream.binding, !stream.binding, !stream.binding, i32, i32, i32, i32) -> (), sym_name = "main_dispatch_29_matmul_196x384x64"} : () -> ()
    }) : () -> ()
    "stream.executable.end"() : () -> ()
  }) {sym_name = "main_dispatch_29", sym_visibility = "private"} : () -> ()
  "stream.executable"() ({
    "stream.executable.export"() ({
    ^bb0(%arg0: index, %arg1: index, %arg2: index):
      %0:3 = "flow.dispatch.workgroup_count_from_dag_root"(%arg0, %arg1, %arg2) : (index, index, index) -> (index, index, index)
      "stream.return"(%0#0, %0#1, %0#2) : (index, index, index) -> ()
    }) {function_ref = @main_dispatch_30, sym_name = "main_dispatch_30"} : () -> ()
    "builtin.module"() ({
      "func.func"() ({
      ^bb0(%arg0: !stream.binding, %arg1: !stream.binding, %arg2: i32, %arg3: i32):
        %0 = "arith.index_castui"(%arg2) {stream.alignment = 1024 : index, stream.values = [0 : index, 50176 : index, 200704 : index]} : (i32) -> index
        %1 = "arith.index_castui"(%arg3) {stream.alignment = 1024 : index, stream.values = [351232 : index, 401408 : index, 501760 : index]} : (i32) -> index
        %2 = "stream.binding.subspan"(%arg0, %0) : (!stream.binding, index) -> !flow.dispatch.tensor<readonly:tensor<14x14x384xf32>>
        %3 = "stream.binding.subspan"(%arg1, %1) : (!stream.binding, index) -> !flow.dispatch.tensor<readwrite:tensor<1x16x16x384xf32>>
        %4 = "flow.dispatch.tensor.load"(%2) {operand_segment_sizes = array<i32: 1, 0, 0, 0, 0>, static_offsets = array<i64: 0, 0, 0>, static_sizes = array<i64: 14, 14, 384>, static_strides = array<i64: 1, 1, 1>} : (!flow.dispatch.tensor<readonly:tensor<14x14x384xf32>>) -> tensor<14x14x384xf32>
        "flow.dispatch.tensor.store"(%4, %3) {operand_segment_sizes = array<i32: 1, 1, 0, 0, 0, 0>, static_offsets = array<i64: 0, 1, 1, 0>, static_sizes = array<i64: 1, 14, 14, 384>, static_strides = array<i64: 1, 1, 1, 1>} : (tensor<14x14x384xf32>, !flow.dispatch.tensor<readwrite:tensor<1x16x16x384xf32>>) -> ()
        "func.return"() : () -> ()
      }) {arg_attrs = [{stream.alignment = 64 : index}, {stream.alignment = 64 : index}, {}, {}], function_type = (!stream.binding, !stream.binding, i32, i32) -> (), sym_name = "main_dispatch_30"} : () -> ()
    }) : () -> ()
    "stream.executable.end"() : () -> ()
  }) {sym_name = "main_dispatch_30", sym_visibility = "private"} : () -> ()
  "stream.executable"() ({
    "stream.executable.export"() ({
    ^bb0(%arg0: index, %arg1: index, %arg2: index, %arg3: index):
      %0:3 = "flow.dispatch.workgroup_count_from_dag_root"(%arg0, %arg1, %arg2, %arg3) : (index, index, index, index) -> (index, index, index)
      "stream.return"(%0#0, %0#1, %0#2) : (index, index, index) -> ()
    }) {function_ref = @main_dispatch_31_depthwise_conv_2d_nhwc_hwc_1x14x14x384x3x3, sym_name = "main_dispatch_31_depthwise_conv_2d_nhwc_hwc_1x14x14x384x3x3"} : () -> ()
    "builtin.module"() ({
      "func.func"() ({
      ^bb0(%arg0: !stream.binding, %arg1: !stream.binding, %arg2: !stream.binding, %arg3: i32, %arg4: i32, %arg5: i32, %arg6: i32):
        %0 = "arith.constant"() {value = 6.000000e+00 : f32} : () -> f32
        %1 = "arith.constant"() {value = 0.000000e+00 : f32} : () -> f32
        %2 = "arith.index_castui"(%arg3) {stream.alignment = 1024 : index, stream.values = [351232 : index, 401408 : index, 501760 : index]} : (i32) -> index
        %3 = "arith.index_castui"(%arg4) {stream.alignment = 64 : index, stream.values = [39744 : index, 53568 : index, 67392 : index, 81216 : index]} : (i32) -> index
        %4 = "arith.index_castui"(%arg5) {stream.alignment = 64 : index, stream.values = [307264 : index, 310336 : index, 313408 : index, 316480 : index]} : (i32) -> index
        %5 = "arith.index_castui"(%arg6) {stream.alignment = 1024 : index, stream.values = [0 : index, 50176 : index, 200704 : index]} : (i32) -> index
        %6 = "stream.binding.subspan"(%arg0, %2) : (!stream.binding, index) -> !flow.dispatch.tensor<readonly:tensor<1x16x16x384xf32>>
        %7 = "stream.binding.subspan"(%arg1, %3) : (!stream.binding, index) -> !flow.dispatch.tensor<readonly:tensor<3x3x384xf32>>
        %8 = "stream.binding.subspan"(%arg1, %4) : (!stream.binding, index) -> !flow.dispatch.tensor<readonly:tensor<384xf32>>
        %9 = "stream.binding.subspan"(%arg2, %5) : (!stream.binding, index) -> !flow.dispatch.tensor<writeonly:tensor<1x14x14x384xf32>>
        %10 = "flow.dispatch.tensor.load"(%6) {operand_segment_sizes = array<i32: 1, 0, 0, 0, 0>, static_offsets = array<i64: 0, 0, 0, 0>, static_sizes = array<i64: 1, 16, 16, 384>, static_strides = array<i64: 1, 1, 1, 1>} : (!flow.dispatch.tensor<readonly:tensor<1x16x16x384xf32>>) -> tensor<1x16x16x384xf32>
        %11 = "flow.dispatch.tensor.load"(%7) {operand_segment_sizes = array<i32: 1, 0, 0, 0, 0>, static_offsets = array<i64: 0, 0, 0>, static_sizes = array<i64: 3, 3, 384>, static_strides = array<i64: 1, 1, 1>} : (!flow.dispatch.tensor<readonly:tensor<3x3x384xf32>>) -> tensor<3x3x384xf32>
        %12 = "flow.dispatch.tensor.load"(%8) {operand_segment_sizes = array<i32: 1, 0, 0, 0, 0>, static_offsets = array<i64: 0>, static_sizes = array<i64: 384>, static_strides = array<i64: 1>} : (!flow.dispatch.tensor<readonly:tensor<384xf32>>) -> tensor<384xf32>
        %13 = "tensor.empty"() : () -> tensor<1x14x14x384xf32>
        %14 = "linalg.fill"(%1, %13) ({
        ^bb0(%arg7: f32, %arg8: f32):
          "linalg.yield"(%arg7) : (f32) -> ()
        }) {operand_segment_sizes = array<i32: 1, 1>} : (f32, tensor<1x14x14x384xf32>) -> tensor<1x14x14x384xf32>
        %15 = "linalg.depthwise_conv_2d_nhwc_hwc"(%10, %11, %14) ({
        ^bb0(%arg7: f32, %arg8: f32, %arg9: f32):
          %17 = "arith.mulf"(%arg7, %arg8) {fastmath = #arith.fastmath<none>} : (f32, f32) -> f32
          %18 = "arith.addf"(%arg9, %17) {fastmath = #arith.fastmath<none>} : (f32, f32) -> f32
          "linalg.yield"(%18) : (f32) -> ()
        }) {dilations = dense<1> : tensor<2xi64>, linalg.memoized_indexing_maps = [affine_map<(d0, d1, d2, d3, d4, d5) -> (d0, d1 + d4, d2 + d5, d3)>, affine_map<(d0, d1, d2, d3, d4, d5) -> (d4, d5, d3)>, affine_map<(d0, d1, d2, d3, d4, d5) -> (d0, d1, d2, d3)>], operand_segment_sizes = array<i32: 2, 1>, strides = dense<1> : tensor<2xi64>} : (tensor<1x16x16x384xf32>, tensor<3x3x384xf32>, tensor<1x14x14x384xf32>) -> tensor<1x14x14x384xf32>
        %16 = "linalg.generic"(%12, %15, %13) ({
        ^bb0(%arg7: f32, %arg8: f32, %arg9: f32):
          %17 = "arith.addf"(%arg7, %arg8) {fastmath = #arith.fastmath<none>} : (f32, f32) -> f32
          %18 = "arith.minf"(%17, %0) {fastmath = #arith.fastmath<none>} : (f32, f32) -> f32
          %19 = "arith.maxf"(%18, %1) {fastmath = #arith.fastmath<none>} : (f32, f32) -> f32
          "linalg.yield"(%19) : (f32) -> ()
        }) {indexing_maps = [affine_map<(d0, d1, d2, d3) -> (d3)>, affine_map<(d0, d1, d2, d3) -> (d0, d1, d2, d3)>, affine_map<(d0, d1, d2, d3) -> (d0, d1, d2, d3)>], iterator_types = [#linalg.iterator_type<parallel>, #linalg.iterator_type<parallel>, #linalg.iterator_type<parallel>, #linalg.iterator_type<parallel>], operand_segment_sizes = array<i32: 2, 1>} : (tensor<384xf32>, tensor<1x14x14x384xf32>, tensor<1x14x14x384xf32>) -> tensor<1x14x14x384xf32>
        "flow.dispatch.tensor.store"(%16, %9) {operand_segment_sizes = array<i32: 1, 1, 0, 0, 0, 0>, static_offsets = array<i64: 0, 0, 0, 0>, static_sizes = array<i64: 1, 14, 14, 384>, static_strides = array<i64: 1, 1, 1, 1>} : (tensor<1x14x14x384xf32>, !flow.dispatch.tensor<writeonly:tensor<1x14x14x384xf32>>) -> ()
        "func.return"() : () -> ()
      }) {arg_attrs = [{stream.alignment = 64 : index}, {stream.alignment = 64 : index}, {stream.alignment = 64 : index}, {}, {}, {}, {}], function_type = (!stream.binding, !stream.binding, !stream.binding, i32, i32, i32, i32) -> (), sym_name = "main_dispatch_31_depthwise_conv_2d_nhwc_hwc_1x14x14x384x3x3"} : () -> ()
    }) : () -> ()
    "stream.executable.end"() : () -> ()
  }) {sym_name = "main_dispatch_31", sym_visibility = "private"} : () -> ()
  "stream.executable"() ({
    "stream.executable.export"() ({
    ^bb0(%arg0: index, %arg1: index):
      %0:3 = "flow.dispatch.workgroup_count_from_dag_root"(%arg0, %arg1) : (index, index) -> (index, index, index)
      "stream.return"(%0#0, %0#1, %0#2) : (index, index, index) -> ()
    }) {function_ref = @main_dispatch_32_matmul_196x64x384, sym_name = "main_dispatch_32_matmul_196x64x384"} : () -> ()
    "builtin.module"() ({
      "func.func"() ({
      ^bb0(%arg0: !stream.binding, %arg1: !stream.binding, %arg2: !stream.binding):
        %0 = "arith.constant"() {value = 200704 : index} : () -> index
        %1 = "arith.constant"() {value = 150528 : index} : () -> index
        %2 = "arith.constant"() {value = 13505088 : index} : () -> index
        %3 = "arith.constant"() {value = 0 : index} : () -> index
        %4 = "arith.constant"() {value = 0.000000e+00 : f32} : () -> f32
        %5 = "arith.constant"() {value = dense_resource<__elided__> : tensor<64xf32>} : () -> tensor<64xf32>
        %6 = "stream.binding.subspan"(%arg0, %0) : (!stream.binding, index) -> !flow.dispatch.tensor<readonly:tensor<196x384xf32>>
        %7 = "stream.binding.subspan"(%arg1, %2) : (!stream.binding, index) -> !flow.dispatch.tensor<readonly:tensor<384x64xf32>>
        %8 = "stream.binding.subspan"(%arg0, %1) : (!stream.binding, index) -> !flow.dispatch.tensor<readonly:tensor<196x64xf32>>
        %9 = "stream.binding.subspan"(%arg2, %3) : (!stream.binding, index) -> !flow.dispatch.tensor<writeonly:tensor<196x64xf32>>
        %10 = "flow.dispatch.tensor.load"(%6) {operand_segment_sizes = array<i32: 1, 0, 0, 0, 0>, static_offsets = array<i64: 0, 0>, static_sizes = array<i64: 196, 384>, static_strides = array<i64: 1, 1>} : (!flow.dispatch.tensor<readonly:tensor<196x384xf32>>) -> tensor<196x384xf32>
        %11 = "flow.dispatch.tensor.load"(%7) {operand_segment_sizes = array<i32: 1, 0, 0, 0, 0>, static_offsets = array<i64: 0, 0>, static_sizes = array<i64: 384, 64>, static_strides = array<i64: 1, 1>} : (!flow.dispatch.tensor<readonly:tensor<384x64xf32>>) -> tensor<384x64xf32>
        %12 = "flow.dispatch.tensor.load"(%8) {operand_segment_sizes = array<i32: 1, 0, 0, 0, 0>, static_offsets = array<i64: 0, 0>, static_sizes = array<i64: 196, 64>, static_strides = array<i64: 1, 1>} : (!flow.dispatch.tensor<readonly:tensor<196x64xf32>>) -> tensor<196x64xf32>
        %13 = "tensor.empty"() : () -> tensor<196x64xf32>
        %14 = "linalg.fill"(%4, %13) ({
        ^bb0(%arg3: f32, %arg4: f32):
          "linalg.yield"(%arg3) : (f32) -> ()
        }) {operand_segment_sizes = array<i32: 1, 1>} : (f32, tensor<196x64xf32>) -> tensor<196x64xf32>
        %15 = "linalg.matmul"(%10, %11, %14) ({
        ^bb0(%arg3: f32, %arg4: f32, %arg5: f32):
          %17 = "arith.mulf"(%arg3, %arg4) {fastmath = #arith.fastmath<none>} : (f32, f32) -> f32
          %18 = "arith.addf"(%arg5, %17) {fastmath = #arith.fastmath<none>} : (f32, f32) -> f32
          "linalg.yield"(%18) : (f32) -> ()
        }) {linalg.memoized_indexing_maps = [affine_map<(d0, d1, d2) -> (d0, d2)>, affine_map<(d0, d1, d2) -> (d2, d1)>, affine_map<(d0, d1, d2) -> (d0, d1)>], operand_segment_sizes = array<i32: 2, 1>} : (tensor<196x384xf32>, tensor<384x64xf32>, tensor<196x64xf32>) -> tensor<196x64xf32>
        %16 = "linalg.generic"(%5, %15, %12, %13) ({
        ^bb0(%arg3: f32, %arg4: f32, %arg5: f32, %arg6: f32):
          %17 = "arith.addf"(%arg3, %arg4) {fastmath = #arith.fastmath<none>} : (f32, f32) -> f32
          %18 = "arith.addf"(%17, %arg5) {fastmath = #arith.fastmath<none>} : (f32, f32) -> f32
          "linalg.yield"(%18) : (f32) -> ()
        }) {indexing_maps = [affine_map<(d0, d1) -> (d1)>, affine_map<(d0, d1) -> (d0, d1)>, affine_map<(d0, d1) -> (d0, d1)>, affine_map<(d0, d1) -> (d0, d1)>], iterator_types = [#linalg.iterator_type<parallel>, #linalg.iterator_type<parallel>], operand_segment_sizes = array<i32: 3, 1>} : (tensor<64xf32>, tensor<196x64xf32>, tensor<196x64xf32>, tensor<196x64xf32>) -> tensor<196x64xf32>
        "flow.dispatch.tensor.store"(%16, %9) {operand_segment_sizes = array<i32: 1, 1, 0, 0, 0, 0>, static_offsets = array<i64: 0, 0>, static_sizes = array<i64: 196, 64>, static_strides = array<i64: 1, 1>} : (tensor<196x64xf32>, !flow.dispatch.tensor<writeonly:tensor<196x64xf32>>) -> ()
        "func.return"() : () -> ()
      }) {arg_attrs = [{stream.alignment = 64 : index}, {stream.alignment = 64 : index}, {stream.alignment = 64 : index}], function_type = (!stream.binding, !stream.binding, !stream.binding) -> (), sym_name = "main_dispatch_32_matmul_196x64x384"} : () -> ()
    }) : () -> ()
    "stream.executable.end"() : () -> ()
  }) {sym_name = "main_dispatch_32", sym_visibility = "private"} : () -> ()
  "stream.executable"() ({
    "stream.executable.export"() ({
    ^bb0(%arg0: index, %arg1: index):
      %0:3 = "flow.dispatch.workgroup_count_from_dag_root"(%arg0, %arg1) : (index, index) -> (index, index, index)
      "stream.return"(%0#0, %0#1, %0#2) : (index, index, index) -> ()
    }) {function_ref = @main_dispatch_36_matmul_196x64x384, sym_name = "main_dispatch_36_matmul_196x64x384"} : () -> ()
    "builtin.module"() ({
      "func.func"() ({
      ^bb0(%arg0: !stream.binding, %arg1: !stream.binding, %arg2: !stream.binding):
        %0 = "arith.constant"() {value = 50176 : index} : () -> index
        %1 = "arith.constant"() {value = 0 : index} : () -> index
        %2 = "arith.constant"() {value = 13308480 : index} : () -> index
        %3 = "arith.constant"() {value = 351232 : index} : () -> index
        %4 = "arith.constant"() {value = 0.000000e+00 : f32} : () -> f32
        %5 = "arith.constant"() {value = dense_resource<__elided__> : tensor<64xf32>} : () -> tensor<64xf32>
        %6 = "stream.binding.subspan"(%arg0, %0) : (!stream.binding, index) -> !flow.dispatch.tensor<readonly:tensor<196x384xf32>>
        %7 = "stream.binding.subspan"(%arg1, %2) : (!stream.binding, index) -> !flow.dispatch.tensor<readonly:tensor<384x64xf32>>
        %8 = "stream.binding.subspan"(%arg0, %1) : (!stream.binding, index) -> !flow.dispatch.tensor<readonly:tensor<196x64xf32>>
        %9 = "stream.binding.subspan"(%arg2, %3) : (!stream.binding, index) -> !flow.dispatch.tensor<writeonly:tensor<196x64xf32>>
        %10 = "flow.dispatch.tensor.load"(%6) {operand_segment_sizes = array<i32: 1, 0, 0, 0, 0>, static_offsets = array<i64: 0, 0>, static_sizes = array<i64: 196, 384>, static_strides = array<i64: 1, 1>} : (!flow.dispatch.tensor<readonly:tensor<196x384xf32>>) -> tensor<196x384xf32>
        %11 = "flow.dispatch.tensor.load"(%7) {operand_segment_sizes = array<i32: 1, 0, 0, 0, 0>, static_offsets = array<i64: 0, 0>, static_sizes = array<i64: 384, 64>, static_strides = array<i64: 1, 1>} : (!flow.dispatch.tensor<readonly:tensor<384x64xf32>>) -> tensor<384x64xf32>
        %12 = "flow.dispatch.tensor.load"(%8) {operand_segment_sizes = array<i32: 1, 0, 0, 0, 0>, static_offsets = array<i64: 0, 0>, static_sizes = array<i64: 196, 64>, static_strides = array<i64: 1, 1>} : (!flow.dispatch.tensor<readonly:tensor<196x64xf32>>) -> tensor<196x64xf32>
        %13 = "tensor.empty"() : () -> tensor<196x64xf32>
        %14 = "linalg.fill"(%4, %13) ({
        ^bb0(%arg3: f32, %arg4: f32):
          "linalg.yield"(%arg3) : (f32) -> ()
        }) {operand_segment_sizes = array<i32: 1, 1>} : (f32, tensor<196x64xf32>) -> tensor<196x64xf32>
        %15 = "linalg.matmul"(%10, %11, %14) ({
        ^bb0(%arg3: f32, %arg4: f32, %arg5: f32):
          %17 = "arith.mulf"(%arg3, %arg4) {fastmath = #arith.fastmath<none>} : (f32, f32) -> f32
          %18 = "arith.addf"(%arg5, %17) {fastmath = #arith.fastmath<none>} : (f32, f32) -> f32
          "linalg.yield"(%18) : (f32) -> ()
        }) {linalg.memoized_indexing_maps = [affine_map<(d0, d1, d2) -> (d0, d2)>, affine_map<(d0, d1, d2) -> (d2, d1)>, affine_map<(d0, d1, d2) -> (d0, d1)>], operand_segment_sizes = array<i32: 2, 1>} : (tensor<196x384xf32>, tensor<384x64xf32>, tensor<196x64xf32>) -> tensor<196x64xf32>
        %16 = "linalg.generic"(%5, %15, %12, %13) ({
        ^bb0(%arg3: f32, %arg4: f32, %arg5: f32, %arg6: f32):
          %17 = "arith.addf"(%arg3, %arg4) {fastmath = #arith.fastmath<none>} : (f32, f32) -> f32
          %18 = "arith.addf"(%17, %arg5) {fastmath = #arith.fastmath<none>} : (f32, f32) -> f32
          "linalg.yield"(%18) : (f32) -> ()
        }) {indexing_maps = [affine_map<(d0, d1) -> (d1)>, affine_map<(d0, d1) -> (d0, d1)>, affine_map<(d0, d1) -> (d0, d1)>, affine_map<(d0, d1) -> (d0, d1)>], iterator_types = [#linalg.iterator_type<parallel>, #linalg.iterator_type<parallel>], operand_segment_sizes = array<i32: 3, 1>} : (tensor<64xf32>, tensor<196x64xf32>, tensor<196x64xf32>, tensor<196x64xf32>) -> tensor<196x64xf32>
        "flow.dispatch.tensor.store"(%16, %9) {operand_segment_sizes = array<i32: 1, 1, 0, 0, 0, 0>, static_offsets = array<i64: 0, 0>, static_sizes = array<i64: 196, 64>, static_strides = array<i64: 1, 1>} : (tensor<196x64xf32>, !flow.dispatch.tensor<writeonly:tensor<196x64xf32>>) -> ()
        "func.return"() : () -> ()
      }) {arg_attrs = [{stream.alignment = 64 : index}, {stream.alignment = 64 : index}, {stream.alignment = 64 : index}], function_type = (!stream.binding, !stream.binding, !stream.binding) -> (), sym_name = "main_dispatch_36_matmul_196x64x384"} : () -> ()
    }) : () -> ()
    "stream.executable.end"() : () -> ()
  }) {sym_name = "main_dispatch_36", sym_visibility = "private"} : () -> ()
  "stream.executable"() ({
    "stream.executable.export"() ({
    ^bb0(%arg0: index, %arg1: index):
      %0:3 = "flow.dispatch.workgroup_count_from_dag_root"(%arg0, %arg1) : (index, index) -> (index, index, index)
      "stream.return"(%0#0, %0#1, %0#2) : (index, index, index) -> ()
    }) {function_ref = @main_dispatch_40_matmul_196x64x384, sym_name = "main_dispatch_40_matmul_196x64x384"} : () -> ()
    "builtin.module"() ({
      "func.func"() ({
      ^bb0(%arg0: !stream.binding, %arg1: !stream.binding, %arg2: !stream.binding):
        %0 = "arith.constant"() {value = 0 : index} : () -> index
        %1 = "arith.constant"() {value = 351232 : index} : () -> index
        %2 = "arith.constant"() {value = 13111872 : index} : () -> index
        %3 = "arith.constant"() {value = 301056 : index} : () -> index
        %4 = "arith.constant"() {value = 0.000000e+00 : f32} : () -> f32
        %5 = "arith.constant"() {value = dense_resource<__elided__> : tensor<64xf32>} : () -> tensor<64xf32>
        %6 = "stream.binding.subspan"(%arg0, %0) : (!stream.binding, index) -> !flow.dispatch.tensor<readonly:tensor<196x384xf32>>
        %7 = "stream.binding.subspan"(%arg1, %2) : (!stream.binding, index) -> !flow.dispatch.tensor<readonly:tensor<384x64xf32>>
        %8 = "stream.binding.subspan"(%arg0, %1) : (!stream.binding, index) -> !flow.dispatch.tensor<readonly:tensor<196x64xf32>>
        %9 = "stream.binding.subspan"(%arg2, %3) : (!stream.binding, index) -> !flow.dispatch.tensor<writeonly:tensor<196x64xf32>>
        %10 = "flow.dispatch.tensor.load"(%6) {operand_segment_sizes = array<i32: 1, 0, 0, 0, 0>, static_offsets = array<i64: 0, 0>, static_sizes = array<i64: 196, 384>, static_strides = array<i64: 1, 1>} : (!flow.dispatch.tensor<readonly:tensor<196x384xf32>>) -> tensor<196x384xf32>
        %11 = "flow.dispatch.tensor.load"(%7) {operand_segment_sizes = array<i32: 1, 0, 0, 0, 0>, static_offsets = array<i64: 0, 0>, static_sizes = array<i64: 384, 64>, static_strides = array<i64: 1, 1>} : (!flow.dispatch.tensor<readonly:tensor<384x64xf32>>) -> tensor<384x64xf32>
        %12 = "flow.dispatch.tensor.load"(%8) {operand_segment_sizes = array<i32: 1, 0, 0, 0, 0>, static_offsets = array<i64: 0, 0>, static_sizes = array<i64: 196, 64>, static_strides = array<i64: 1, 1>} : (!flow.dispatch.tensor<readonly:tensor<196x64xf32>>) -> tensor<196x64xf32>
        %13 = "tensor.empty"() : () -> tensor<196x64xf32>
        %14 = "linalg.fill"(%4, %13) ({
        ^bb0(%arg3: f32, %arg4: f32):
          "linalg.yield"(%arg3) : (f32) -> ()
        }) {operand_segment_sizes = array<i32: 1, 1>} : (f32, tensor<196x64xf32>) -> tensor<196x64xf32>
        %15 = "linalg.matmul"(%10, %11, %14) ({
        ^bb0(%arg3: f32, %arg4: f32, %arg5: f32):
          %17 = "arith.mulf"(%arg3, %arg4) {fastmath = #arith.fastmath<none>} : (f32, f32) -> f32
          %18 = "arith.addf"(%arg5, %17) {fastmath = #arith.fastmath<none>} : (f32, f32) -> f32
          "linalg.yield"(%18) : (f32) -> ()
        }) {linalg.memoized_indexing_maps = [affine_map<(d0, d1, d2) -> (d0, d2)>, affine_map<(d0, d1, d2) -> (d2, d1)>, affine_map<(d0, d1, d2) -> (d0, d1)>], operand_segment_sizes = array<i32: 2, 1>} : (tensor<196x384xf32>, tensor<384x64xf32>, tensor<196x64xf32>) -> tensor<196x64xf32>
        %16 = "linalg.generic"(%5, %15, %12, %13) ({
        ^bb0(%arg3: f32, %arg4: f32, %arg5: f32, %arg6: f32):
          %17 = "arith.addf"(%arg3, %arg4) {fastmath = #arith.fastmath<none>} : (f32, f32) -> f32
          %18 = "arith.addf"(%17, %arg5) {fastmath = #arith.fastmath<none>} : (f32, f32) -> f32
          "linalg.yield"(%18) : (f32) -> ()
        }) {indexing_maps = [affine_map<(d0, d1) -> (d1)>, affine_map<(d0, d1) -> (d0, d1)>, affine_map<(d0, d1) -> (d0, d1)>, affine_map<(d0, d1) -> (d0, d1)>], iterator_types = [#linalg.iterator_type<parallel>, #linalg.iterator_type<parallel>], operand_segment_sizes = array<i32: 3, 1>} : (tensor<64xf32>, tensor<196x64xf32>, tensor<196x64xf32>, tensor<196x64xf32>) -> tensor<196x64xf32>
        "flow.dispatch.tensor.store"(%16, %9) {operand_segment_sizes = array<i32: 1, 1, 0, 0, 0, 0>, static_offsets = array<i64: 0, 0>, static_sizes = array<i64: 196, 64>, static_strides = array<i64: 1, 1>} : (tensor<196x64xf32>, !flow.dispatch.tensor<writeonly:tensor<196x64xf32>>) -> ()
        "func.return"() : () -> ()
      }) {arg_attrs = [{stream.alignment = 64 : index}, {stream.alignment = 64 : index}, {stream.alignment = 64 : index}], function_type = (!stream.binding, !stream.binding, !stream.binding) -> (), sym_name = "main_dispatch_40_matmul_196x64x384"} : () -> ()
    }) : () -> ()
    "stream.executable.end"() : () -> ()
  }) {sym_name = "main_dispatch_40", sym_visibility = "private"} : () -> ()
  "stream.executable"() ({
    "stream.executable.export"() ({
    ^bb0(%arg0: index, %arg1: index):
      %0:3 = "flow.dispatch.workgroup_count_from_dag_root"(%arg0, %arg1) : (index, index) -> (index, index, index)
      "stream.return"(%0#0, %0#1, %0#2) : (index, index, index) -> ()
    }) {function_ref = @main_dispatch_44_matmul_196x96x384, sym_name = "main_dispatch_44_matmul_196x96x384"} : () -> ()
    "builtin.module"() ({
      "func.func"() ({
      ^bb0(%arg0: !stream.binding, %arg1: !stream.binding, %arg2: !stream.binding):
        %0 = "arith.constant"() {value = 0 : index} : () -> index
        %1 = "arith.constant"() {value = 12866112 : index} : () -> index
        %2 = "arith.constant"() {value = 306880 : index} : () -> index
        %3 = "arith.constant"() {value = 301056 : index} : () -> index
        %4 = "arith.constant"() {value = 0.000000e+00 : f32} : () -> f32
        %5 = "stream.binding.subspan"(%arg0, %0) : (!stream.binding, index) -> !flow.dispatch.tensor<readonly:tensor<196x384xf32>>
        %6 = "stream.binding.subspan"(%arg1, %1) : (!stream.binding, index) -> !flow.dispatch.tensor<readonly:tensor<384x96xf32>>
        %7 = "stream.binding.subspan"(%arg1, %2) : (!stream.binding, index) -> !flow.dispatch.tensor<readonly:tensor<96xf32>>
        %8 = "stream.binding.subspan"(%arg2, %3) : (!stream.binding, index) -> !flow.dispatch.tensor<writeonly:tensor<196x96xf32>>
        %9 = "flow.dispatch.tensor.load"(%5) {operand_segment_sizes = array<i32: 1, 0, 0, 0, 0>, static_offsets = array<i64: 0, 0>, static_sizes = array<i64: 196, 384>, static_strides = array<i64: 1, 1>} : (!flow.dispatch.tensor<readonly:tensor<196x384xf32>>) -> tensor<196x384xf32>
        %10 = "flow.dispatch.tensor.load"(%6) {operand_segment_sizes = array<i32: 1, 0, 0, 0, 0>, static_offsets = array<i64: 0, 0>, static_sizes = array<i64: 384, 96>, static_strides = array<i64: 1, 1>} : (!flow.dispatch.tensor<readonly:tensor<384x96xf32>>) -> tensor<384x96xf32>
        %11 = "flow.dispatch.tensor.load"(%7) {operand_segment_sizes = array<i32: 1, 0, 0, 0, 0>, static_offsets = array<i64: 0>, static_sizes = array<i64: 96>, static_strides = array<i64: 1>} : (!flow.dispatch.tensor<readonly:tensor<96xf32>>) -> tensor<96xf32>
        %12 = "tensor.empty"() : () -> tensor<196x96xf32>
        %13 = "linalg.fill"(%4, %12) ({
        ^bb0(%arg3: f32, %arg4: f32):
          "linalg.yield"(%arg3) : (f32) -> ()
        }) {operand_segment_sizes = array<i32: 1, 1>} : (f32, tensor<196x96xf32>) -> tensor<196x96xf32>
        %14 = "linalg.matmul"(%9, %10, %13) ({
        ^bb0(%arg3: f32, %arg4: f32, %arg5: f32):
          %16 = "arith.mulf"(%arg3, %arg4) {fastmath = #arith.fastmath<none>} : (f32, f32) -> f32
          %17 = "arith.addf"(%arg5, %16) {fastmath = #arith.fastmath<none>} : (f32, f32) -> f32
          "linalg.yield"(%17) : (f32) -> ()
        }) {linalg.memoized_indexing_maps = [affine_map<(d0, d1, d2) -> (d0, d2)>, affine_map<(d0, d1, d2) -> (d2, d1)>, affine_map<(d0, d1, d2) -> (d0, d1)>], operand_segment_sizes = array<i32: 2, 1>} : (tensor<196x384xf32>, tensor<384x96xf32>, tensor<196x96xf32>) -> tensor<196x96xf32>
        %15 = "linalg.generic"(%11, %14, %12) ({
        ^bb0(%arg3: f32, %arg4: f32, %arg5: f32):
          %16 = "arith.addf"(%arg3, %arg4) {fastmath = #arith.fastmath<none>} : (f32, f32) -> f32
          "linalg.yield"(%16) : (f32) -> ()
        }) {indexing_maps = [affine_map<(d0, d1) -> (d1)>, affine_map<(d0, d1) -> (d0, d1)>, affine_map<(d0, d1) -> (d0, d1)>], iterator_types = [#linalg.iterator_type<parallel>, #linalg.iterator_type<parallel>], operand_segment_sizes = array<i32: 2, 1>} : (tensor<96xf32>, tensor<196x96xf32>, tensor<196x96xf32>) -> tensor<196x96xf32>
        "flow.dispatch.tensor.store"(%15, %8) {operand_segment_sizes = array<i32: 1, 1, 0, 0, 0, 0>, static_offsets = array<i64: 0, 0>, static_sizes = array<i64: 196, 96>, static_strides = array<i64: 1, 1>} : (tensor<196x96xf32>, !flow.dispatch.tensor<writeonly:tensor<196x96xf32>>) -> ()
        "func.return"() : () -> ()
      }) {arg_attrs = [{stream.alignment = 64 : index}, {stream.alignment = 64 : index}, {stream.alignment = 64 : index}], function_type = (!stream.binding, !stream.binding, !stream.binding) -> (), sym_name = "main_dispatch_44_matmul_196x96x384"} : () -> ()
    }) : () -> ()
    "stream.executable.end"() : () -> ()
  }) {sym_name = "main_dispatch_44", sym_visibility = "private"} : () -> ()
  "stream.executable"() ({
    "stream.executable.export"() ({
    ^bb0(%arg0: index, %arg1: index):
      %0:3 = "flow.dispatch.workgroup_count_from_dag_root"(%arg0, %arg1) : (index, index) -> (index, index, index)
      "stream.return"(%0#0, %0#1, %0#2) : (index, index, index) -> ()
    }) {function_ref = @main_dispatch_45_matmul_196x576x96, sym_name = "main_dispatch_45_matmul_196x576x96"} : () -> ()
    "builtin.module"() ({
      "func.func"() ({
      ^bb0(%arg0: !stream.binding, %arg1: !stream.binding, %arg2: !stream.binding, %arg3: i32, %arg4: i32, %arg5: i32, %arg6: i32):
        %0 = "arith.constant"() {value = 6.000000e+00 : f32} : () -> f32
        %1 = "arith.constant"() {value = 0.000000e+00 : f32} : () -> f32
        %2 = "arith.index_castui"(%arg3) {stream.alignment = 512 : index, stream.values = [0 : index, 301056 : index, 526848 : index]} : (i32) -> index
        %3 = "arith.index_castui"(%arg4) {stream.alignment = 64 : index, stream.values = [11760192 : index, 12202560 : index, 12644928 : index]} : (i32) -> index
        %4 = "arith.index_castui"(%arg5) {stream.alignment = 64 : index, stream.values = [294592 : index, 299584 : index, 304576 : index]} : (i32) -> index
        %5 = "arith.index_castui"(%arg6) {stream.alignment = 512 : index, stream.values = [0 : index, 75264 : index, 376320 : index]} : (i32) -> index
        %6 = "stream.binding.subspan"(%arg0, %2) : (!stream.binding, index) -> !flow.dispatch.tensor<readonly:tensor<196x96xf32>>
        %7 = "stream.binding.subspan"(%arg1, %3) : (!stream.binding, index) -> !flow.dispatch.tensor<readonly:tensor<96x576xf32>>
        %8 = "stream.binding.subspan"(%arg1, %4) : (!stream.binding, index) -> !flow.dispatch.tensor<readonly:tensor<576xf32>>
        %9 = "stream.binding.subspan"(%arg2, %5) : (!stream.binding, index) -> !flow.dispatch.tensor<writeonly:tensor<196x576xf32>>
        %10 = "flow.dispatch.tensor.load"(%6) {operand_segment_sizes = array<i32: 1, 0, 0, 0, 0>, static_offsets = array<i64: 0, 0>, static_sizes = array<i64: 196, 96>, static_strides = array<i64: 1, 1>} : (!flow.dispatch.tensor<readonly:tensor<196x96xf32>>) -> tensor<196x96xf32>
        %11 = "flow.dispatch.tensor.load"(%7) {operand_segment_sizes = array<i32: 1, 0, 0, 0, 0>, static_offsets = array<i64: 0, 0>, static_sizes = array<i64: 96, 576>, static_strides = array<i64: 1, 1>} : (!flow.dispatch.tensor<readonly:tensor<96x576xf32>>) -> tensor<96x576xf32>
        %12 = "flow.dispatch.tensor.load"(%8) {operand_segment_sizes = array<i32: 1, 0, 0, 0, 0>, static_offsets = array<i64: 0>, static_sizes = array<i64: 576>, static_strides = array<i64: 1>} : (!flow.dispatch.tensor<readonly:tensor<576xf32>>) -> tensor<576xf32>
        %13 = "tensor.empty"() : () -> tensor<196x576xf32>
        %14 = "linalg.fill"(%1, %13) ({
        ^bb0(%arg7: f32, %arg8: f32):
          "linalg.yield"(%arg7) : (f32) -> ()
        }) {operand_segment_sizes = array<i32: 1, 1>} : (f32, tensor<196x576xf32>) -> tensor<196x576xf32>
        %15 = "linalg.matmul"(%10, %11, %14) ({
        ^bb0(%arg7: f32, %arg8: f32, %arg9: f32):
          %17 = "arith.mulf"(%arg7, %arg8) {fastmath = #arith.fastmath<none>} : (f32, f32) -> f32
          %18 = "arith.addf"(%arg9, %17) {fastmath = #arith.fastmath<none>} : (f32, f32) -> f32
          "linalg.yield"(%18) : (f32) -> ()
        }) {linalg.memoized_indexing_maps = [affine_map<(d0, d1, d2) -> (d0, d2)>, affine_map<(d0, d1, d2) -> (d2, d1)>, affine_map<(d0, d1, d2) -> (d0, d1)>], operand_segment_sizes = array<i32: 2, 1>} : (tensor<196x96xf32>, tensor<96x576xf32>, tensor<196x576xf32>) -> tensor<196x576xf32>
        %16 = "linalg.generic"(%12, %15, %13) ({
        ^bb0(%arg7: f32, %arg8: f32, %arg9: f32):
          %17 = "arith.addf"(%arg7, %arg8) {fastmath = #arith.fastmath<none>} : (f32, f32) -> f32
          %18 = "arith.minf"(%17, %0) {fastmath = #arith.fastmath<none>} : (f32, f32) -> f32
          %19 = "arith.maxf"(%18, %1) {fastmath = #arith.fastmath<none>} : (f32, f32) -> f32
          "linalg.yield"(%19) : (f32) -> ()
        }) {indexing_maps = [affine_map<(d0, d1) -> (d1)>, affine_map<(d0, d1) -> (d0, d1)>, affine_map<(d0, d1) -> (d0, d1)>], iterator_types = [#linalg.iterator_type<parallel>, #linalg.iterator_type<parallel>], operand_segment_sizes = array<i32: 2, 1>} : (tensor<576xf32>, tensor<196x576xf32>, tensor<196x576xf32>) -> tensor<196x576xf32>
        "flow.dispatch.tensor.store"(%16, %9) {operand_segment_sizes = array<i32: 1, 1, 0, 0, 0, 0>, static_offsets = array<i64: 0, 0>, static_sizes = array<i64: 196, 576>, static_strides = array<i64: 1, 1>} : (tensor<196x576xf32>, !flow.dispatch.tensor<writeonly:tensor<196x576xf32>>) -> ()
        "func.return"() : () -> ()
      }) {arg_attrs = [{stream.alignment = 64 : index}, {stream.alignment = 64 : index}, {stream.alignment = 64 : index}, {}, {}, {}, {}], function_type = (!stream.binding, !stream.binding, !stream.binding, i32, i32, i32, i32) -> (), sym_name = "main_dispatch_45_matmul_196x576x96"} : () -> ()
    }) : () -> ()
    "stream.executable.end"() : () -> ()
  }) {sym_name = "main_dispatch_45", sym_visibility = "private"} : () -> ()
  "stream.executable"() ({
    "stream.executable.export"() ({
    ^bb0(%arg0: index, %arg1: index, %arg2: index):
      %0:3 = "flow.dispatch.workgroup_count_from_dag_root"(%arg0, %arg1, %arg2) : (index, index, index) -> (index, index, index)
      "stream.return"(%0#0, %0#1, %0#2) : (index, index, index) -> ()
    }) {function_ref = @main_dispatch_46, sym_name = "main_dispatch_46"} : () -> ()
    "builtin.module"() ({
      "func.func"() ({
      ^bb0(%arg0: !stream.binding, %arg1: !stream.binding, %arg2: i32, %arg3: i32):
        %0 = "arith.index_castui"(%arg2) {stream.alignment = 512 : index, stream.values = [75264 : index, 376320 : index]} : (i32) -> index
        %1 = "arith.index_castui"(%arg3) {stream.alignment = 512 : index, stream.values = [526848 : index, 827904 : index]} : (i32) -> index
        %2 = "stream.binding.subspan"(%arg0, %0) : (!stream.binding, index) -> !flow.dispatch.tensor<readonly:tensor<14x14x576xf32>>
        %3 = "stream.binding.subspan"(%arg1, %1) : (!stream.binding, index) -> !flow.dispatch.tensor<readwrite:tensor<1x16x16x576xf32>>
        %4 = "flow.dispatch.tensor.load"(%2) {operand_segment_sizes = array<i32: 1, 0, 0, 0, 0>, static_offsets = array<i64: 0, 0, 0>, static_sizes = array<i64: 14, 14, 576>, static_strides = array<i64: 1, 1, 1>} : (!flow.dispatch.tensor<readonly:tensor<14x14x576xf32>>) -> tensor<14x14x576xf32>
        "flow.dispatch.tensor.store"(%4, %3) {operand_segment_sizes = array<i32: 1, 1, 0, 0, 0, 0>, static_offsets = array<i64: 0, 1, 1, 0>, static_sizes = array<i64: 1, 14, 14, 576>, static_strides = array<i64: 1, 1, 1, 1>} : (tensor<14x14x576xf32>, !flow.dispatch.tensor<readwrite:tensor<1x16x16x576xf32>>) -> ()
        "func.return"() : () -> ()
      }) {arg_attrs = [{stream.alignment = 64 : index}, {stream.alignment = 64 : index}, {}, {}], function_type = (!stream.binding, !stream.binding, i32, i32) -> (), sym_name = "main_dispatch_46"} : () -> ()
    }) : () -> ()
    "stream.executable.end"() : () -> ()
  }) {sym_name = "main_dispatch_46", sym_visibility = "private"} : () -> ()
  "stream.executable"() ({
    "stream.executable.export"() ({
    ^bb0(%arg0: index, %arg1: index, %arg2: index, %arg3: index):
      %0:3 = "flow.dispatch.workgroup_count_from_dag_root"(%arg0, %arg1, %arg2, %arg3) : (index, index, index, index) -> (index, index, index)
      "stream.return"(%0#0, %0#1, %0#2) : (index, index, index) -> ()
    }) {function_ref = @main_dispatch_47_depthwise_conv_2d_nhwc_hwc_1x14x14x576x3x3, sym_name = "main_dispatch_47_depthwise_conv_2d_nhwc_hwc_1x14x14x576x3x3"} : () -> ()
    "builtin.module"() ({
      "func.func"() ({
      ^bb0(%arg0: !stream.binding, %arg1: !stream.binding, %arg2: !stream.binding, %arg3: i32, %arg4: i32, %arg5: i32, %arg6: i32):
        %0 = "arith.constant"() {value = 6.000000e+00 : f32} : () -> f32
        %1 = "arith.constant"() {value = 0.000000e+00 : f32} : () -> f32
        %2 = "arith.index_castui"(%arg3) {stream.alignment = 512 : index, stream.values = [526848 : index, 827904 : index]} : (i32) -> index
        %3 = "arith.index_castui"(%arg4) {stream.alignment = 64 : index, stream.values = [95040 : index, 115776 : index]} : (i32) -> index
        %4 = "arith.index_castui"(%arg5) {stream.alignment = 64 : index, stream.values = [297280 : index, 302272 : index]} : (i32) -> index
        %5 = "arith.index_castui"(%arg6) {stream.alignment = 512 : index, stream.values = [75264 : index, 376320 : index]} : (i32) -> index
        %6 = "stream.binding.subspan"(%arg0, %2) : (!stream.binding, index) -> !flow.dispatch.tensor<readonly:tensor<1x16x16x576xf32>>
        %7 = "stream.binding.subspan"(%arg1, %3) : (!stream.binding, index) -> !flow.dispatch.tensor<readonly:tensor<3x3x576xf32>>
        %8 = "stream.binding.subspan"(%arg1, %4) : (!stream.binding, index) -> !flow.dispatch.tensor<readonly:tensor<576xf32>>
        %9 = "stream.binding.subspan"(%arg2, %5) : (!stream.binding, index) -> !flow.dispatch.tensor<writeonly:tensor<1x14x14x576xf32>>
        %10 = "flow.dispatch.tensor.load"(%6) {operand_segment_sizes = array<i32: 1, 0, 0, 0, 0>, static_offsets = array<i64: 0, 0, 0, 0>, static_sizes = array<i64: 1, 16, 16, 576>, static_strides = array<i64: 1, 1, 1, 1>} : (!flow.dispatch.tensor<readonly:tensor<1x16x16x576xf32>>) -> tensor<1x16x16x576xf32>
        %11 = "flow.dispatch.tensor.load"(%7) {operand_segment_sizes = array<i32: 1, 0, 0, 0, 0>, static_offsets = array<i64: 0, 0, 0>, static_sizes = array<i64: 3, 3, 576>, static_strides = array<i64: 1, 1, 1>} : (!flow.dispatch.tensor<readonly:tensor<3x3x576xf32>>) -> tensor<3x3x576xf32>
        %12 = "flow.dispatch.tensor.load"(%8) {operand_segment_sizes = array<i32: 1, 0, 0, 0, 0>, static_offsets = array<i64: 0>, static_sizes = array<i64: 576>, static_strides = array<i64: 1>} : (!flow.dispatch.tensor<readonly:tensor<576xf32>>) -> tensor<576xf32>
        %13 = "tensor.empty"() : () -> tensor<1x14x14x576xf32>
        %14 = "linalg.fill"(%1, %13) ({
        ^bb0(%arg7: f32, %arg8: f32):
          "linalg.yield"(%arg7) : (f32) -> ()
        }) {operand_segment_sizes = array<i32: 1, 1>} : (f32, tensor<1x14x14x576xf32>) -> tensor<1x14x14x576xf32>
        %15 = "linalg.depthwise_conv_2d_nhwc_hwc"(%10, %11, %14) ({
        ^bb0(%arg7: f32, %arg8: f32, %arg9: f32):
          %17 = "arith.mulf"(%arg7, %arg8) {fastmath = #arith.fastmath<none>} : (f32, f32) -> f32
          %18 = "arith.addf"(%arg9, %17) {fastmath = #arith.fastmath<none>} : (f32, f32) -> f32
          "linalg.yield"(%18) : (f32) -> ()
        }) {dilations = dense<1> : tensor<2xi64>, linalg.memoized_indexing_maps = [affine_map<(d0, d1, d2, d3, d4, d5) -> (d0, d1 + d4, d2 + d5, d3)>, affine_map<(d0, d1, d2, d3, d4, d5) -> (d4, d5, d3)>, affine_map<(d0, d1, d2, d3, d4, d5) -> (d0, d1, d2, d3)>], operand_segment_sizes = array<i32: 2, 1>, strides = dense<1> : tensor<2xi64>} : (tensor<1x16x16x576xf32>, tensor<3x3x576xf32>, tensor<1x14x14x576xf32>) -> tensor<1x14x14x576xf32>
        %16 = "linalg.generic"(%12, %15, %13) ({
        ^bb0(%arg7: f32, %arg8: f32, %arg9: f32):
          %17 = "arith.addf"(%arg7, %arg8) {fastmath = #arith.fastmath<none>} : (f32, f32) -> f32
          %18 = "arith.minf"(%17, %0) {fastmath = #arith.fastmath<none>} : (f32, f32) -> f32
          %19 = "arith.maxf"(%18, %1) {fastmath = #arith.fastmath<none>} : (f32, f32) -> f32
          "linalg.yield"(%19) : (f32) -> ()
        }) {indexing_maps = [affine_map<(d0, d1, d2, d3) -> (d3)>, affine_map<(d0, d1, d2, d3) -> (d0, d1, d2, d3)>, affine_map<(d0, d1, d2, d3) -> (d0, d1, d2, d3)>], iterator_types = [#linalg.iterator_type<parallel>, #linalg.iterator_type<parallel>, #linalg.iterator_type<parallel>, #linalg.iterator_type<parallel>], operand_segment_sizes = array<i32: 2, 1>} : (tensor<576xf32>, tensor<1x14x14x576xf32>, tensor<1x14x14x576xf32>) -> tensor<1x14x14x576xf32>
        "flow.dispatch.tensor.store"(%16, %9) {operand_segment_sizes = array<i32: 1, 1, 0, 0, 0, 0>, static_offsets = array<i64: 0, 0, 0, 0>, static_sizes = array<i64: 1, 14, 14, 576>, static_strides = array<i64: 1, 1, 1, 1>} : (tensor<1x14x14x576xf32>, !flow.dispatch.tensor<writeonly:tensor<1x14x14x576xf32>>) -> ()
        "func.return"() : () -> ()
      }) {arg_attrs = [{stream.alignment = 64 : index}, {stream.alignment = 64 : index}, {stream.alignment = 64 : index}, {}, {}, {}, {}], function_type = (!stream.binding, !stream.binding, !stream.binding, i32, i32, i32, i32) -> (), sym_name = "main_dispatch_47_depthwise_conv_2d_nhwc_hwc_1x14x14x576x3x3"} : () -> ()
    }) : () -> ()
    "stream.executable.end"() : () -> ()
  }) {sym_name = "main_dispatch_47", sym_visibility = "private"} : () -> ()
  "stream.executable"() ({
    "stream.executable.export"() ({
    ^bb0(%arg0: index, %arg1: index):
      %0:3 = "flow.dispatch.workgroup_count_from_dag_root"(%arg0, %arg1) : (index, index) -> (index, index, index)
      "stream.return"(%0#0, %0#1, %0#2) : (index, index, index) -> ()
    }) {function_ref = @main_dispatch_48_matmul_196x96x576, sym_name = "main_dispatch_48_matmul_196x96x576"} : () -> ()
    "builtin.module"() ({
      "func.func"() ({
      ^bb0(%arg0: !stream.binding, %arg1: !stream.binding, %arg2: !stream.binding, %arg3: i32, %arg4: i32, %arg5: i32, %arg6: i32, %arg7: i32):
        %0 = "arith.constant"() {value = 0.000000e+00 : f32} : () -> f32
        %1 = "arith.index_castui"(%arg3) {stream.alignment = 512 : index, stream.values = [75264 : index, 376320 : index]} : (i32) -> index
        %2 = "arith.index_castui"(%arg4) {stream.alignment = 2048 : index, stream.values = [0 : index, 301056 : index]} : (i32) -> index
        %3 = "arith.index_castui"(%arg5) {stream.alignment = 64 : index, stream.values = [11981376 : index, 12423744 : index]} : (i32) -> index
        %4 = "arith.index_castui"(%arg6) {stream.alignment = 64 : index, stream.values = [296896 : index, 301888 : index]} : (i32) -> index
        %5 = "arith.index_castui"(%arg7) {stream.alignment = 512 : index, stream.values = [0 : index, 526848 : index]} : (i32) -> index
        %6 = "stream.binding.subspan"(%arg0, %1) : (!stream.binding, index) -> !flow.dispatch.tensor<readonly:tensor<196x576xf32>>
        %7 = "stream.binding.subspan"(%arg1, %3) : (!stream.binding, index) -> !flow.dispatch.tensor<readonly:tensor<576x96xf32>>
        %8 = "stream.binding.subspan"(%arg1, %4) : (!stream.binding, index) -> !flow.dispatch.tensor<readonly:tensor<96xf32>>
        %9 = "stream.binding.subspan"(%arg0, %2) : (!stream.binding, index) -> !flow.dispatch.tensor<readonly:tensor<196x96xf32>>
        %10 = "stream.binding.subspan"(%arg2, %5) : (!stream.binding, index) -> !flow.dispatch.tensor<writeonly:tensor<196x96xf32>>
        %11 = "flow.dispatch.tensor.load"(%6) {operand_segment_sizes = array<i32: 1, 0, 0, 0, 0>, static_offsets = array<i64: 0, 0>, static_sizes = array<i64: 196, 576>, static_strides = array<i64: 1, 1>} : (!flow.dispatch.tensor<readonly:tensor<196x576xf32>>) -> tensor<196x576xf32>
        %12 = "flow.dispatch.tensor.load"(%7) {operand_segment_sizes = array<i32: 1, 0, 0, 0, 0>, static_offsets = array<i64: 0, 0>, static_sizes = array<i64: 576, 96>, static_strides = array<i64: 1, 1>} : (!flow.dispatch.tensor<readonly:tensor<576x96xf32>>) -> tensor<576x96xf32>
        %13 = "flow.dispatch.tensor.load"(%8) {operand_segment_sizes = array<i32: 1, 0, 0, 0, 0>, static_offsets = array<i64: 0>, static_sizes = array<i64: 96>, static_strides = array<i64: 1>} : (!flow.dispatch.tensor<readonly:tensor<96xf32>>) -> tensor<96xf32>
…
        "flow.dispatch.tensor.store"(%9, %5) {operand_segment_sizes = array<i32: 1, 1, 0, 0, 0, 0>, static_offsets = array<i64: 0, 0>, static_sizes = array<i64: 1, 1001>, static_strides = array<i64: 1, 1>} : (tensor<1x1001xf32>, !flow.dispatch.tensor<writeonly:tensor<1x1001xf32>>) -> ()
        "func.return"() : () -> ()
      }) {arg_attrs = [{stream.alignment = 64 : index}, {stream.alignment = 64 : index}], function_type = (!stream.binding, !stream.binding) -> (), sym_name = "main_dispatch_73_generic_1x1001"} : () -> ()
    }) : () -> ()
    "stream.executable.end"() : () -> ()
  }) {sym_name = "main_dispatch_73", sym_visibility = "private"} : () -> ()
  "func.func"() ({
  ^bb0(%arg0: !hal.buffer_view):
    %0 = "arith.constant"() {value = 267328 : i32} : () -> i32
    %1 = "arith.constant"() {value = 226368 : i32} : () -> i32
    %2 = "arith.constant"() {value = 250880 : i32} : () -> i32
    %3 = "arith.constant"() {value = 271168 : i32} : () -> i32
    %4 = "arith.constant"() {value = 8319552 : i32} : () -> i32
    %5 = "arith.constant"() {value = 275008 : i32} : () -> i32
    %6 = "arith.constant"() {value = 8933952 : i32} : () -> i32
    %7 = "arith.constant"() {value = 275648 : i32} : () -> i32
    %8 = "arith.constant"() {value = 191808 : i32} : () -> i32
    %9 = "arith.constant"() {value = 219520 : i32} : () -> i32
    %10 = "arith.constant"() {value = 31360 : i32} : () -> i32
    %11 = "arith.constant"() {value = 279488 : i32} : () -> i32
    %12 = "arith.constant"() {value = 9548352 : i32} : () -> i32
    %13 = "arith.constant"() {value = 283328 : i32} : () -> i32
    %14 = "arith.constant"() {value = 10162752 : i32} : () -> i32
    %15 = "arith.constant"() {value = 283968 : i32} : () -> i32
    %16 = "arith.constant"() {value = 157248 : i32} : () -> i32
    %17 = "arith.constant"() {value = 332416 : i32} : () -> i32
    %18 = "arith.constant"() {value = 144256 : i32} : () -> i32
    %19 = "arith.constant"() {value = 287808 : i32} : () -> i32
    %20 = "arith.constant"() {value = 10777152 : i32} : () -> i32
    %21 = "arith.constant"() {value = 112896 : i32} : () -> i32
    %22 = "arith.constant"() {value = 294592 : i32} : () -> i32
    %23 = "arith.constant"() {value = 11760192 : i32} : () -> i32
    %24 = "arith.constant"() {value = 296896 : i32} : () -> i32
    %25 = "arith.constant"() {value = 11981376 : i32} : () -> i32
    %26 = "arith.constant"() {value = 297280 : i32} : () -> i32
    %27 = "arith.constant"() {value = 115776 : i32} : () -> i32
    %28 = "arith.constant"() {value = 526848 : i32} : () -> i32
    %29 = "arith.constant"() {value = 75264 : i32} : () -> i32
    %30 = "arith.constant"() {value = 299584 : i32} : () -> i32
    %31 = "arith.constant"() {value = 12202560 : i32} : () -> i32
    %32 = "arith.constant"() {value = 301888 : i32} : () -> i32
    %33 = "arith.constant"() {value = 12423744 : i32} : () -> i32
    %34 = "arith.constant"() {value = 302272 : i32} : () -> i32
    %35 = "arith.constant"() {value = 95040 : i32} : () -> i32
    %36 = "arith.constant"() {value = 827904 : i32} : () -> i32
    %37 = "arith.constant"() {value = 376320 : i32} : () -> i32
    %38 = "arith.constant"() {value = 304576 : i32} : () -> i32
    %39 = "arith.constant"() {value = 12644928 : i32} : () -> i32
    %40 = "arith.constant"() {value = 307264 : i32} : () -> i32
    %41 = "arith.constant"() {value = 81216 : i32} : () -> i32
    %42 = "arith.constant"() {value = 308800 : i32} : () -> i32
    %43 = "arith.constant"() {value = 13013568 : i32} : () -> i32
    %44 = "arith.constant"() {value = 310336 : i32} : () -> i32
    %45 = "arith.constant"() {value = 67392 : i32} : () -> i32
    %46 = "arith.constant"() {value = 401408 : i32} : () -> i32
    %47 = "arith.constant"() {value = 311872 : i32} : () -> i32
    %48 = "arith.constant"() {value = 13210176 : i32} : () -> i32
    %49 = "arith.constant"() {value = 313408 : i32} : () -> i32
    %50 = "arith.constant"() {value = 53568 : i32} : () -> i32
    %51 = "arith.constant"() {value = 351232 : i32} : () -> i32
    %52 = "arith.constant"() {value = 50176 : i32} : () -> i32
    %53 = "arith.constant"() {value = 314944 : i32} : () -> i32
    %54 = "arith.constant"() {value = 13406784 : i32} : () -> i32
    %55 = "arith.constant"() {value = 316480 : i32} : () -> i32
    %56 = "arith.constant"() {value = 39744 : i32} : () -> i32
    %57 = "arith.constant"() {value = 501760 : i32} : () -> i32
    %58 = "arith.constant"() {value = 200704 : i32} : () -> i32
    %59 = "arith.constant"() {value = 318016 : i32} : () -> i32
    %60 = "arith.constant"() {value = 13603392 : i32} : () -> i32
    %61 = "arith.constant"() {value = 150528 : i32} : () -> i32
    %62 = "arith.constant"() {value = 320320 : i32} : () -> i32
    %63 = "arith.constant"() {value = 13750848 : i32} : () -> i32
    %64 = "arith.constant"() {value = 321088 : i32} : () -> i32
    %65 = "arith.constant"() {value = 25920 : i32} : () -> i32
    %66 = "arith.constant"() {value = 702464 : i32} : () -> i32
    %67 = "arith.constant"() {value = 100352 : i32} : () -> i32
    %68 = "arith.constant"() {value = 321856 : i32} : () -> i32
    %69 = "arith.constant"() {value = 13800000 : i32} : () -> i32
    %70 = "arith.constant"() {value = 322624 : i32} : () -> i32
    %71 = "arith.constant"() {value = 19008 : i32} : () -> i32
    %72 = "arith.constant"() {value = 1154048 : i32} : () -> i32
    %73 = "arith.constant"() {value = 551936 : i32} : () -> i32
    %74 = "arith.constant"() {value = 323392 : i32} : () -> i32
    %75 = "arith.constant"() {value = 13849152 : i32} : () -> i32
    %76 = "arith.constant"() {value = 451584 : i32} : () -> i32
    %77 = "arith.constant"() {value = 301056 : i32} : () -> i32
    %78 = "arith.constant"() {value = 324736 : i32} : () -> i32
    %79 = "arith.constant"() {value = 13892160 : i32} : () -> i32
    %80 = "arith.constant"() {value = 1505280 : i32} : () -> i32
    %81 = "arith.constant"() {value = 325888 : i32} : () -> i32
    %82 = "arith.constant"() {value = 13919808 : i32} : () -> i32
    %83 = "arith.constant"() {value = 1204224 : i32} : () -> i32
    %84 = "arith.constant"() {value = 0 : i32} : () -> i32
    %85 = "arith.constant"() {value = 12128640 : index} : () -> index
    %86 = "arith.constant"() {value = 219520 : index} : () -> index
    %87 = "arith.constant"() {value = 332416 : index} : () -> index
    %88 = "arith.constant"() {value = 526848 : index} : () -> index
    %89 = "arith.constant"() {value = 827904 : index} : () -> index
    %90 = "arith.constant"() {value = 401408 : index} : () -> index
    %91 = "arith.constant"() {value = 351232 : index} : () -> index
    %92 = "arith.constant"() {value = 501760 : index} : () -> index
    %93 = "arith.constant"() {value = 702464 : index} : () -> index
    %94 = "arith.constant"() {value = 1154048 : index} : () -> index
    %95 = "arith.constant"() {value = 2107392 : index} : () -> index
    %96 = "arith.constant"() {value = 3311616 : index} : () -> index
    %97 = "arith.constant"() {value = 7225344 : index} : () -> index
    %98 = "arith.constant"() {value = 2213184 : index} : () -> index
    %99 = "arith.constant"() {value = 0 : i8} : () -> i8
    %100 = "arith.constant"() {value = 0 : index} : () -> index
    %101 = "arith.constant"() {value = 1 : i32} : () -> i32
    %102 = "arith.constant"() {value = 553648160 : i32} : () -> i32
    %103 = "arith.constant"() {value = 1001 : index} : () -> index
    %104 = "arith.constant"() {value = 1280 : index} : () -> index
    %105 = "arith.constant"() {value = 320 : index} : () -> index
    %106 = "arith.constant"() {value = 160 : index} : () -> index
    %107 = "arith.constant"() {value = 49 : index} : () -> index
    %108 = "arith.constant"() {value = 64 : index} : () -> index
    %109 = "arith.constant"() {value = 196 : index} : () -> index
    %110 = "arith.constant"() {value = 784 : index} : () -> index
    %111 = "arith.constant"() {value = 24 : index} : () -> index
    %112 = "arith.constant"() {value = 3136 : index} : () -> index
    %113 = "arith.constant"() {value = 16 : index} : () -> index
    %114 = "arith.constant"() {value = 12544 : index} : () -> index
    %115 = "arith.constant"() {value = 1 : index} : () -> index
    %116 = "arith.constant"() {value = 960 : index} : () -> index
    %117 = "arith.constant"() {value = 7 : index} : () -> index
    %118 = "arith.constant"() {value = 576 : index} : () -> index
    %119 = "arith.constant"() {value = 384 : index} : () -> index
    %120 = "arith.constant"() {value = 14 : index} : () -> index
    %121 = "arith.constant"() {value = 192 : index} : () -> index
    %122 = "arith.constant"() {value = 28 : index} : () -> index
    %123 = "arith.constant"() {value = 144 : index} : () -> index
    %124 = "arith.constant"() {value = 56 : index} : () -> index
    %125 = "arith.constant"() {value = 96 : index} : () -> index
    %126 = "arith.constant"() {value = 32 : index} : () -> index
    %127 = "arith.constant"() {value = 112 : index} : () -> index
    %128 = "arith.constant"() {value = 3 : index} : () -> index
    %129 = "arith.constant"() {value = 224 : index} : () -> index
    %130 = "arith.constant"() {value = 4004 : index} : () -> index
    %131 = "arith.constant"() {value = 250880 : index} : () -> index
    %132 = "arith.constant"() {value = 311040 : index} : () -> index
    %133 = "arith.constant"() {value = 518400 : index} : () -> index
    %134 = "arith.constant"() {value = 589824 : index} : () -> index
    %135 = "arith.constant"() {value = 393216 : index} : () -> index
    %136 = "arith.constant"() {value = 645888 : index} : () -> index
    %137 = "arith.constant"() {value = 691200 : index} : () -> index
    %138 = "arith.constant"() {value = 1871424 : index} : () -> index
    %139 = "arith.constant"() {value = 1937664 : index} : () -> index
    %140 = "arith.constant"() {value = 4903296 : index} : () -> index
    %141 = "arith.constant"() {value = 802816 : index} : () -> index
    %142 = "arith.constant"() {value = 1663488 : index} : () -> index
    %143 = "arith.constant"() {value = 607500 : index} : () -> index
    %144 = "arith.constant"() {value = 602112 : index} : () -> index
    %145 = "arith.constant"() {value = 13954496 : index} : () -> index
    %146 = "util.global.load"() {global = @_constant__timepoint} : () -> !stream.timepoint
    %147 = "util.global.load"() {global = @_constant} : () -> !stream.resource<constant>
    "hal.buffer_view.assert"(%arg0, %102, %101, %115, %129, %129, %128) {message = "tensor"} : (!hal.buffer_view, i32, i32, index, index, index, index) -> ()
    %148 = "stream.tensor.import"(%arg0, %144) {result_encoding = tensor<1x224x224x3xf32>} : (!hal.buffer_view, index) -> !stream.resource<external>
    %149 = "stream.resource.alloc"(%130) {uninitialized} : (index) -> !stream.resource<external>
    %150:2 = "stream.resource.alloca"(%85, %146) : (index, !stream.timepoint) -> (!stream.resource<transient>, !stream.timepoint)
    %151 = "stream.cmd.execute"(%148, %147, %149, %150#0, %144, %145, %130, %85, %150#1) ({
    ^bb0(%arg1: !stream.resource<external>, %arg2: !stream.resource<constant>, %arg3: !stream.resource<external>, %arg4: !stream.resource<transient>):
      "stream.cmd.fill"(%arg4, %85, %100, %143, %99) : (!stream.resource<transient>, index, index, index, i8) -> ()
      "stream.cmd.dispatch"(%129, %129, %128, %arg1, %arg4, %144, %85, %100, %100, %144, %85) {entry_point = @main_dispatch_0::@main_dispatch_0, operand_segment_sizes = array<i32: 3, 0, 2, 2, 2, 2>, resource_accesses = [1 : i32, 3 : i32]} : (index, index, index, !stream.resource<external>, !stream.resource<transient>, index, index, index, index, index, index) -> ()
      "stream.cmd.concurrent"() ({
        "stream.cmd.dispatch"(%115, %127, %127, %126, %arg4, %arg2, %arg4, %85, %145, %85, %100, %100, %100, %85, %145, %85) {entry_point = @main_dispatch_1::@main_dispatch_1_conv_2d_nhwc_hwcf_1x112x112x32x3x3x3, operand_segment_sizes = array<i32: 4, 0, 3, 3, 3, 3>, resource_accesses = [1 : i32, 1 : i32, 2 : i32]} : (index, index, index, index, !stream.resource<transient>, !stream.resource<constant>, !stream.resource<transient>, index, index, index, index, index, index, index, index, index) -> ()
        "stream.cmd.fill"(%arg4, %85, %98, %142, %99) : (!stream.resource<transient>, index, index, index, i8) -> ()
        "stream.yield"() : () -> ()
      }) : () -> ()
      "stream.cmd.dispatch"(%127, %127, %126, %arg4, %arg4, %85, %85, %100, %100, %85, %85) {entry_point = @main_dispatch_2::@main_dispatch_2, operand_segment_sizes = array<i32: 3, 0, 2, 2, 2, 2>, resource_accesses = [1 : i32, 3 : i32]} : (index, index, index, !stream.resource<transient>, !stream.resource<transient>, index, index, index, index, index, index) -> ()
      "stream.cmd.dispatch"(%115, %127, %127, %126, %arg4, %arg2, %arg4, %85, %145, %85, %100, %100, %100, %85, %145, %85) {entry_point = @main_dispatch_3::@main_dispatch_3_depthwise_conv_2d_nhwc_hwc_1x112x112x32x3x3, operand_segment_sizes = array<i32: 4, 0, 3, 3, 3, 3>, resource_accesses = [1 : i32, 1 : i32, 2 : i32]} : (index, index, index, index, !stream.resource<transient>, !stream.resource<constant>, !stream.resource<transient>, index, index, index, index, index, index, index, index, index) -> ()
      "stream.cmd.dispatch"(%114, %113, %arg4, %arg2, %arg4, %85, %145, %85, %100, %100, %100, %85, %145, %85) {entry_point = @main_dispatch_4::@main_dispatch_4_matmul_12544x16x32, operand_segment_sizes = array<i32: 2, 0, 3, 3, 3, 3>, resource_accesses = [1 : i32, 1 : i32, 2 : i32]} : (index, index, !stream.resource<transient>, !stream.resource<constant>, !stream.resource<transient>, index, index, index, index, index, index, index, index, index) -> ()
      "stream.cmd.concurrent"() ({
        "stream.cmd.dispatch"(%114, %125, %arg4, %arg2, %arg4, %85, %145, %85, %100, %100, %100, %85, %145, %85) {entry_point = @main_dispatch_5::@main_dispatch_5_matmul_12544x96x16, operand_segment_sizes = array<i32: 2, 0, 3, 3, 3, 3>, resource_accesses = [1 : i32, 1 : i32, 2 : i32]} : (index, index, !stream.resource<transient>, !stream.resource<constant>, !stream.resource<transient>, index, index, index, index, index, index, index, index, index) -> ()
        "stream.cmd.fill"(%arg4, %85, %97, %140, %99) : (!stream.resource<transient>, index, index, index, i8) -> ()
        "stream.yield"() : () -> ()
      }) : () -> ()
      "stream.cmd.dispatch"(%127, %127, %125, %arg4, %arg4, %85, %85, %100, %100, %85, %85) {entry_point = @main_dispatch_6::@main_dispatch_6, operand_segment_sizes = array<i32: 3, 0, 2, 2, 2, 2>, resource_accesses = [1 : i32, 3 : i32]} : (index, index, index, !stream.resource<transient>, !stream.resource<transient>, index, index, index, index, index, index) -> ()
      "stream.cmd.dispatch"(%115, %124, %124, %125, %arg4, %arg2, %arg4, %85, %145, %85, %100, %100, %100, %85, %145, %85) {entry_point = @main_dispatch_7::@main_dispatch_7_depthwise_conv_2d_nhwc_hwc_1x56x56x96x3x3, operand_segment_sizes = array<i32: 4, 0, 3, 3, 3, 3>, resource_accesses = [1 : i32, 1 : i32, 2 : i32]} : (index, index, index, index, !stream.resource<transient>, !stream.resource<constant>, !stream.resource<transient>, index, index, index, index, index, index, index, index, index) -> ()
      "stream.cmd.dispatch"(%112, %111, %arg4, %arg2, %arg4, %85, %145, %85, %100, %100, %100, %85, %145, %85) {entry_point = @main_dispatch_8::@main_dispatch_8_matmul_3136x24x96, operand_segment_sizes = array<i32: 2, 0, 3, 3, 3, 3>, resource_accesses = [1 : i32, 1 : i32, 2 : i32]} : (index, index, !stream.resource<transient>, !stream.resource<constant>, !stream.resource<transient>, index, index, index, index, index, index, index, index, index) -> ()
      "stream.cmd.concurrent"() ({
        "stream.cmd.dispatch"(%112, %123, %83, %82, %81, %80, %arg4, %arg2, %arg4, %85, %145, %85, %100, %100, %100, %85, %145, %85) {entry_point = @main_dispatch_9::@main_dispatch_9_matmul_3136x144x24, operand_segment_sizes = array<i32: 2, 4, 3, 3, 3, 3>, resource_accesses = [1 : i32, 1 : i32, 2 : i32]} : (index, index, i32, i32, i32, i32, !stream.resource<transient>, !stream.resource<constant>, !stream.resource<transient>, index, index, index, index, index, index, index, index, index) -> ()
        "stream.cmd.fill"(%arg4, %85, %96, %139, %99) : (!stream.resource<transient>, index, index, index, i8) -> ()
        "stream.yield"() : () -> ()
      }) : () -> ()
      "stream.cmd.dispatch"(%124, %124, %123, %arg4, %arg4, %85, %85, %100, %100, %85, %85) {entry_point = @main_dispatch_10::@main_dispatch_10, operand_segment_sizes = array<i32: 3, 0, 2, 2, 2, 2>, resource_accesses = [1 : i32, 3 : i32]} : (index, index, index, !stream.resource<transient>, !stream.resource<transient>, index, index, index, index, index, index) -> ()
      "stream.cmd.dispatch"(%115, %124, %124, %123, %arg4, %arg2, %arg4, %85, %145, %85, %100, %100, %100, %85, %145, %85) {entry_point = @main_dispatch_11::@main_dispatch_11_depthwise_conv_2d_nhwc_hwc_1x56x56x144x3x3, operand_segment_sizes = array<i32: 4, 0, 3, 3, 3, 3>, resource_accesses = [1 : i32, 1 : i32, 2 : i32]} : (index, index, index, index, !stream.resource<transient>, !stream.resource<constant>, !stream.resource<transient>, index, index, index, index, index, index, index, index, index) -> ()
      "stream.cmd.dispatch"(%112, %111, %arg4, %arg2, %arg4, %85, %145, %85, %100, %100, %100, %85, %145, %85) {entry_point = @main_dispatch_12::@main_dispatch_12_matmul_3136x24x144, operand_segment_sizes = array<i32: 2, 0, 3, 3, 3, 3>, resource_accesses = [1 : i32, 1 : i32, 2 : i32]} : (index, index, !stream.resource<transient>, !stream.resource<constant>, !stream.resource<transient>, index, index, index, index, index, index, index, index, index) -> ()
      "stream.cmd.concurrent"() ({
        "stream.cmd.dispatch"(%112, %123, %84, %79, %78, %77, %arg4, %arg2, %arg4, %85, %145, %85, %100, %100, %100, %85, %145, %85) {entry_point = @main_dispatch_9::@main_dispatch_9_matmul_3136x144x24, operand_segment_sizes = array<i32: 2, 4, 3, 3, 3, 3>, resource_accesses = [1 : i32, 1 : i32, 2 : i32]} : (index, index, i32, i32, i32, i32, !stream.resource<transient>, !stream.resource<constant>, !stream.resource<transient>, index, index, index, index, index, index, index, index, index) -> ()
        "stream.cmd.fill"(%arg4, %85, %95, %138, %99) : (!stream.resource<transient>, index, index, index, i8) -> ()
        "stream.yield"() : () -> ()
      }) : () -> ()
      "stream.cmd.dispatch"(%124, %124, %123, %arg4, %arg4, %85, %85, %100, %100, %85, %85) {entry_point = @main_dispatch_14::@main_dispatch_14, operand_segment_sizes = array<i32: 3, 0, 2, 2, 2, 2>, resource_accesses = [1 : i32, 3 : i32]} : (index, index, index, !stream.resource<transient>, !stream.resource<transient>, index, index, index, index, index, index) -> ()
      "stream.cmd.dispatch"(%115, %122, %122, %123, %arg4, %arg2, %arg4, %85, %145, %85, %100, %100, %100, %85, %145, %85) {entry_point = @main_dispatch_15::@main_dispatch_15_depthwise_conv_2d_nhwc_hwc_1x28x28x144x3x3, operand_segment_sizes = array<i32: 4, 0, 3, 3, 3, 3>, resource_accesses = [1 : i32, 1 : i32, 2 : i32]} : (index, index, index, index, !stream.resource<transient>, !stream.resource<constant>, !stream.resource<transient>, index, index, index, index, index, index, index, index, index) -> ()
      "stream.cmd.dispatch"(%110, %126, %arg4, %arg2, %arg4, %85, %145, %85, %100, %100, %100, %85, %145, %85) {entry_point = @main_dispatch_16::@main_dispatch_16_matmul_784x32x144, operand_segment_sizes = array<i32: 2, 0, 3, 3, 3, 3>, resource_accesses = [1 : i32, 1 : i32, 2 : i32]} : (index, index, !stream.resource<transient>, !stream.resource<constant>, !stream.resource<transient>, index, index, index, index, index, index, index, index, index) -> ()
      "stream.cmd.concurrent"() ({
        "stream.cmd.dispatch"(%110, %121, %76, %75, %74, %73, %arg4, %arg2, %arg4, %85, %145, %85, %100, %100, %100, %85, %145, %85) {entry_point = @main_dispatch_17::@main_dispatch_17_matmul_784x192x32, operand_segment_sizes = array<i32: 2, 4, 3, 3, 3, 3>, resource_accesses = [1 : i32, 1 : i32, 2 : i32]} : (index, index, i32, i32, i32, i32, !stream.resource<transient>, !stream.resource<constant>, !stream.resource<transient>, index, index, index, index, index, index, index, index, index) -> ()
        "stream.cmd.fill"(%arg4, %85, %94, %137, %99) : (!stream.resource<transient>, index, index, index, i8) -> ()
        "stream.yield"() : () -> ()
      }) : () -> ()
      "stream.cmd.dispatch"(%122, %122, %121, %73, %72, %arg4, %arg4, %85, %85, %100, %100, %85, %85) {entry_point = @main_dispatch_18::@main_dispatch_18, operand_segment_sizes = array<i32: 3, 2, 2, 2, 2, 2>, resource_accesses = [1 : i32, 3 : i32]} : (index, index, index, i32, i32, !stream.resource<transient>, !stream.resource<transient>, index, index, index, index, index, index) -> ()
      "stream.cmd.dispatch"(%115, %122, %122, %121, %72, %71, %70, %73, %arg4, %arg2, %arg4, %85, %145, %85, %100, %100, %100, %85, %145, %85) {entry_point = @main_dispatch_19::@main_dispatch_19_depthwise_conv_2d_nhwc_hwc_1x28x28x192x3x3, operand_segment_sizes = array<i32: 4, 4, 3, 3, 3, 3>, resource_accesses = [1 : i32, 1 : i32, 2 : i32]} : (index, index, index, index, i32, i32, i32, i32, !stream.resource<transient>, !stream.resource<constant>, !stream.resource<transient>, index, index, index, index, index, index, index, index, index) -> ()
      "stream.cmd.dispatch"(%110, %126, %arg4, %arg2, %arg4, %85, %145, %85, %100, %100, %100, %85, %145, %85) {entry_point = @main_dispatch_20::@main_dispatch_20_matmul_784x32x192, operand_segment_sizes = array<i32: 2, 0, 3, 3, 3, 3>, resource_accesses = [1 : i32, 1 : i32, 2 : i32]} : (index, index, !stream.resource<transient>, !stream.resource<constant>, !stream.resource<transient>, index, index, index, index, index, index, index, index, index) -> ()
      "stream.cmd.concurrent"() ({
        "stream.cmd.dispatch"(%110, %121, %84, %69, %68, %67, %arg4, %arg2, %arg4, %85, %145, %85, %100, %100, %100, %85, %145, %85) {entry_point = @main_dispatch_17::@main_dispatch_17_matmul_784x192x32, operand_segment_sizes = array<i32: 2, 4, 3, 3, 3, 3>, resource_accesses = [1 : i32, 1 : i32, 2 : i32]} : (index, index, i32, i32, i32, i32, !stream.resource<transient>, !stream.resource<constant>, !stream.resource<transient>, index, index, index, index, index, index, index, index, index) -> ()
        "stream.cmd.fill"(%arg4, %85, %93, %137, %99) : (!stream.resource<transient>, index, index, index, i8) -> ()
        "stream.yield"() : () -> ()
      }) : () -> ()
      "stream.cmd.dispatch"(%122, %122, %121, %67, %66, %arg4, %arg4, %85, %85, %100, %100, %85, %85) {entry_point = @main_dispatch_18::@main_dispatch_18, operand_segment_sizes = array<i32: 3, 2, 2, 2, 2, 2>, resource_accesses = [1 : i32, 3 : i32]} : (index, index, index, i32, i32, !stream.resource<transient>, !stream.resource<transient>, index, index, index, index, index, index) -> ()
      "stream.cmd.dispatch"(%115, %122, %122, %121, %66, %65, %64, %67, %arg4, %arg2, %arg4, %85, %145, %85, %100, %100, %100, %85, %145, %85) {entry_point = @main_dispatch_19::@main_dispatch_19_depthwise_conv_2d_nhwc_hwc_1x28x28x192x3x3, operand_segment_sizes = array<i32: 4, 4, 3, 3, 3, 3>, resource_accesses = [1 : i32, 1 : i32, 2 : i32]} : (index, index, index, index, i32, i32, i32, i32, !stream.resource<transient>, !stream.resource<constant>, !stream.resource<transient>, index, index, index, index, index, index, index, index, index) -> ()
      "stream.cmd.dispatch"(%110, %126, %arg4, %arg2, %arg4, %85, %145, %85, %100, %100, %100, %85, %145, %85) {entry_point = @main_dispatch_24::@main_dispatch_24_matmul_784x32x192, operand_segment_sizes = array<i32: 2, 0, 3, 3, 3, 3>, resource_accesses = [1 : i32, 1 : i32, 2 : i32]} : (index, index, !stream.resource<transient>, !stream.resource<constant>, !stream.resource<transient>, index, index, index, index, index, index, index, index, index) -> ()
      "stream.cmd.concurrent"() ({
        "stream.cmd.dispatch"(%110, %121, %66, %63, %62, %84, %arg4, %arg2, %arg4, %85, %145, %85, %100, %100, %100, %85, %145, %85) {entry_point = @main_dispatch_17::@main_dispatch_17_matmul_784x192x32, operand_segment_sizes = array<i32: 2, 4, 3, 3, 3, 3>, resource_accesses = [1 : i32, 1 : i32, 2 : i32]} : (index, index, i32, i32, i32, i32, !stream.resource<transient>, !stream.resource<constant>, !stream.resource<transient>, index, index, index, index, index, index, index, index, index) -> ()
        "stream.cmd.fill"(%arg4, %85, %141, %136, %99) : (!stream.resource<transient>, index, index, index, i8) -> ()
        "stream.yield"() : () -> ()
      }) : () -> ()
      "stream.cmd.dispatch"(%122, %122, %121, %arg4, %arg4, %85, %85, %100, %100, %85, %85) {entry_point = @main_dispatch_26::@main_dispatch_26, operand_segment_sizes = array<i32: 3, 0, 2, 2, 2, 2>, resource_accesses = [1 : i32, 3 : i32]} : (index, index, index, !stream.resource<transient>, !stream.resource<transient>, index, index, index, index, index, index) -> ()
      "stream.cmd.dispatch"(%115, %120, %120, %121, %arg4, %arg2, %arg4, %85, %145, %85, %100, %100, %100, %85, %145, %85) {entry_point = @main_dispatch_27::@main_dispatch_27_depthwise_conv_2d_nhwc_hwc_1x14x14x192x3x3, operand_segment_sizes = array<i32: 4, 0, 3, 3, 3, 3>, resource_accesses = [1 : i32, 1 : i32, 2 : i32]} : (index, index, index, index, !stream.resource<transient>, !stream.resource<constant>, !stream.resource<transient>, index, index, index, index, index, index, index, index, index) -> ()
      "stream.cmd.dispatch"(%109, %108, %arg4, %arg2, %arg4, %85, %145, %85, %100, %100, %100, %85, %145, %85) {entry_point = @main_dispatch_28::@main_dispatch_28_matmul_196x64x192, operand_segment_sizes = array<i32: 2, 0, 3, 3, 3, 3>, resource_accesses = [1 : i32, 1 : i32, 2 : i32]} : (index, index, !stream.resource<transient>, !stream.resource<constant>, !stream.resource<transient>, index, index, index, index, index, index, index, index, index) -> ()
      "stream.cmd.concurrent"() ({
        "stream.cmd.dispatch"(%109, %119, %61, %60, %59, %58, %arg4, %arg2, %arg4, %85, %145, %85, %100, %100, %100, %85, %145, %85) {entry_point = @main_dispatch_29::@main_dispatch_29_matmul_196x384x64, operand_segment_sizes = array<i32: 2, 4, 3, 3, 3, 3>, resource_accesses = [1 : i32, 1 : i32, 2 : i32]} : (index, index, i32, i32, i32, i32, !stream.resource<transient>, !stream.resource<constant>, !stream.resource<transient>, index, index, index, index, index, index, index, index, index) -> ()
        "stream.cmd.fill"(%arg4, %85, %92, %135, %99) : (!stream.resource<transient>, index, index, index, i8) -> ()
        "stream.yield"() : () -> ()
      }) : () -> ()
      "stream.cmd.dispatch"(%120, %120, %119, %58, %57, %arg4, %arg4, %85, %85, %100, %100, %85, %85) {entry_point = @main_dispatch_30::@main_dispatch_30, operand_segment_sizes = array<i32: 3, 2, 2, 2, 2, 2>, resource_accesses = [1 : i32, 3 : i32]} : (index, index, index, i32, i32, !stream.resource<transient>, !stream.resource<transient>, index, index, index, index, index, index) -> ()
      "stream.cmd.dispatch"(%115, %120, %120, %119, %57, %56, %55, %58, %arg4, %arg2, %arg4, %85, %145, %85, %100, %100, %100, %85, %145, %85) {entry_point = @main_dispatch_31::@main_dispatch_31_depthwise_conv_2d_nhwc_hwc_1x14x14x384x3x3, operand_segment_sizes = array<i32: 4, 4, 3, 3, 3, 3>, resource_accesses = [1 : i32, 1 : i32, 2 : i32]} : (index, index, index, index, i32, i32, i32, i32, !stream.resource<transient>, !stream.resource<constant>, !stream.resource<transient>, index, index, index, index, index, index, index, index, index) -> ()
      "stream.cmd.dispatch"(%109, %108, %arg4, %arg2, %arg4, %85, %145, %85, %100, %100, %100, %85, %145, %85) {entry_point = @main_dispatch_32::@main_dispatch_32_matmul_196x64x384, operand_segment_sizes = array<i32: 2, 0, 3, 3, 3, 3>, resource_accesses = [1 : i32, 1 : i32, 2 : i32]} : (index, index, !stream.resource<transient>, !stream.resource<constant>, !stream.resource<transient>, index, index, index, index, index, index, index, index, index) -> ()
      "stream.cmd.concurrent"() ({
        "stream.cmd.dispatch"(%109, %119, %84, %54, %53, %52, %arg4, %arg2, %arg4, %85, %145, %85, %100, %100, %100, %85, %145, %85) {entry_point = @main_dispatch_29::@main_dispatch_29_matmul_196x384x64, operand_segment_sizes = array<i32: 2, 4, 3, 3, 3, 3>, resource_accesses = [1 : i32, 1 : i32, 2 : i32]} : (index, index, i32, i32, i32, i32, !stream.resource<transient>, !stream.resource<constant>, !stream.resource<transient>, index, index, index, index, index, index, index, index, index) -> ()
        "stream.cmd.fill"(%arg4, %85, %91, %135, %99) : (!stream.resource<transient>, index, index, index, i8) -> ()
        "stream.yield"() : () -> ()
      }) : () -> ()
      "stream.cmd.dispatch"(%120, %120, %119, %52, %51, %arg4, %arg4, %85, %85, %100, %100, %85, %85) {entry_point = @main_dispatch_30::@main_dispatch_30, operand_segment_sizes = array<i32: 3, 2, 2, 2, 2, 2>, resource_accesses = [1 : i32, 3 : i32]} : (index, index, index, i32, i32, !stream.resource<transient>, !stream.resource<transient>, index, index, index, index, index, index) -> ()
      "stream.cmd.dispatch"(%115, %120, %120, %119, %51, %50, %49, %52, %arg4, %arg2, %arg4, %85, %145, %85, %100, %100, %100, %85, %145, %85) {entry_point = @main_dispatch_31::@main_dispatch_31_depthwise_conv_2d_nhwc_hwc_1x14x14x384x3x3, operand_segment_sizes = array<i32: 4, 4, 3, 3, 3, 3>, resource_accesses = [1 : i32, 1 : i32, 2 : i32]} : (index, index, index, index, i32, i32, i32, i32, !stream.resource<transient>, !stream.resource<constant>, !stream.resource<transient>, index, index, index, index, index, index, index, index, index) -> ()
      "stream.cmd.dispatch"(%109, %108, %arg4, %arg2, %arg4, %85, %145, %85, %100, %100, %100, %85, %145, %85) {entry_point = @main_dispatch_36::@main_dispatch_36_matmul_196x64x384, operand_segment_sizes = array<i32: 2, 0, 3, 3, 3, 3>, resource_accesses = [1 : i32, 1 : i32, 2 : i32]} : (index, index, !stream.resource<transient>, !stream.resource<constant>, !stream.resource<transient>, index, index, index, index, index, index, index, index, index) -> ()
      "stream.cmd.concurrent"() ({
        "stream.cmd.dispatch"(%109, %119, %51, %48, %47, %84, %arg4, %arg2, %arg4, %85, %145, %85, %100, %100, %100, %85, %145, %85) {entry_point = @main_dispatch_29::@main_dispatch_29_matmul_196x384x64, operand_segment_sizes = array<i32: 2, 4, 3, 3, 3, 3>, resource_accesses = [1 : i32, 1 : i32, 2 : i32]} : (index, index, i32, i32, i32, i32, !stream.resource<transient>, !stream.resource<constant>, !stream.resource<transient>, index, index, index, index, index, index, index, index, index) -> ()
        "stream.cmd.fill"(%arg4, %85, %90, %135, %99) : (!stream.resource<transient>, index, index, index, i8) -> ()
        "stream.yield"() : () -> ()
      }) : () -> ()
      "stream.cmd.dispatch"(%120, %120, %119, %84, %46, %arg4, %arg4, %85, %85, %100, %100, %85, %85) {entry_point = @main_dispatch_30::@main_dispatch_30, operand_segment_sizes = array<i32: 3, 2, 2, 2, 2, 2>, resource_accesses = [1 : i32, 3 : i32]} : (index, index, index, i32, i32, !stream.resource<transient>, !stream.resource<transient>, index, index, index, index, index, index) -> ()
      "stream.cmd.dispatch"(%115, %120, %120, %119, %46, %45, %44, %84, %arg4, %arg2, %arg4, %85, %145, %85, %100, %100, %100, %85, %145, %85) {entry_point = @main_dispatch_31::@main_dispatch_31_depthwise_conv_2d_nhwc_hwc_1x14x14x384x3x3, operand_segment_sizes = array<i32: 4, 4, 3, 3, 3, 3>, resource_accesses = [1 : i32, 1 : i32, 2 : i32]} : (index, index, index, index, i32, i32, i32, i32, !stream.resource<transient>, !stream.resource<constant>, !stream.resource<transient>, index, index, index, index, index, index, index, index, index) -> ()
      "stream.cmd.dispatch"(%109, %108, %arg4, %arg2, %arg4, %85, %145, %85, %100, %100, %100, %85, %145, %85) {entry_point = @main_dispatch_40::@main_dispatch_40_matmul_196x64x384, operand_segment_sizes = array<i32: 2, 0, 3, 3, 3, 3>, resource_accesses = [1 : i32, 1 : i32, 2 : i32]} : (index, index, !stream.resource<transient>, !stream.resource<constant>, !stream.resource<transient>, index, index, index, index, index, index, index, index, index) -> ()
      "stream.cmd.concurrent"() ({
        "stream.cmd.dispatch"(%109, %119, %77, %43, %42, %84, %arg4, %arg2, %arg4, %85, %145, %85, %100, %100, %100, %85, %145, %85) {entry_point = @main_dispatch_29::@main_dispatch_29_matmul_196x384x64, operand_segment_sizes = array<i32: 2, 4, 3, 3, 3, 3>, resource_accesses = [1 : i32, 1 : i32, 2 : i32]} : (index, index, i32, i32, i32, i32, !stream.resource<transient>, !stream.resource<constant>, !stream.resource<transient>, index, index, index, index, index, index, index, index, index) -> ()
        "stream.cmd.fill"(%arg4, %85, %91, %135, %99) : (!stream.resource<transient>, index, index, index, i8) -> ()
        "stream.yield"() : () -> ()
      }) : () -> ()
      "stream.cmd.dispatch"(%120, %120, %119, %84, %51, %arg4, %arg4, %85, %85, %100, %100, %85, %85) {entry_point = @main_dispatch_30::@main_dispatch_30, operand_segment_sizes = array<i32: 3, 2, 2, 2, 2, 2>, resource_accesses = [1 : i32, 3 : i32]} : (index, index, index, i32, i32, !stream.resource<transient>, !stream.resource<transient>, index, index, index, index, index, index) -> ()
      "stream.cmd.dispatch"(%115, %120, %120, %119, %51, %41, %40, %84, %arg4, %arg2, %arg4, %85, %145, %85, %100, %100, %100, %85, %145, %85) {entry_point = @main_dispatch_31::@main_dispatch_31_depthwise_conv_2d_nhwc_hwc_1x14x14x384x3x3, operand_segment_sizes = array<i32: 4, 4, 3, 3, 3, 3>, resource_accesses = [1 : i32, 1 : i32, 2 : i32]} : (index, index, index, index, i32, i32, i32, i32, !stream.resource<transient>, !stream.resource<constant>, !stream.resource<transient>, index, index, index, index, index, index, index, index, index) -> ()
      "stream.cmd.dispatch"(%109, %125, %arg4, %arg2, %arg4, %85, %145, %85, %100, %100, %100, %85, %145, %85) {entry_point = @main_dispatch_44::@main_dispatch_44_matmul_196x96x384, operand_segment_sizes = array<i32: 2, 0, 3, 3, 3, 3>, resource_accesses = [1 : i32, 1 : i32, 2 : i32]} : (index, index, !stream.resource<transient>, !stream.resource<constant>, !stream.resource<transient>, index, index, index, index, index, index, index, index, index) -> ()
      "stream.cmd.concurrent"() ({
        "stream.cmd.dispatch"(%109, %118, %77, %39, %38, %37, %arg4, %arg2, %arg4, %85, %145, %85, %100, %100, %100, %85, %145, %85) {entry_point = @main_dispatch_45::@main_dispatch_45_matmul_196x576x96, operand_segment_sizes = array<i32: 2, 4, 3, 3, 3, 3>, resource_accesses = [1 : i32, 1 : i32, 2 : i32]} : (index, index, i32, i32, i32, i32, !stream.resource<transient>, !stream.resource<constant>, !stream.resource<transient>, index, index, index, index, index, index, index, index, index) -> ()
        "stream.cmd.fill"(%arg4, %85, %89, %134, %99) : (!stream.resource<transient>, index, index, index, i8) -> ()
        "stream.yield"() : () -> ()
      }) : () -> ()
      "stream.cmd.dispatch"(%120, %120, %118, %37, %36, %arg4, %arg4, %85, %85, %100, %100, %85, %85) {entry_point = @main_dispatch_46::@main_dispatch_46, operand_segment_sizes = array<i32: 3, 2, 2, 2, 2, 2>, resource_accesses = [1 : i32, 3 : i32]} : (index, index, index, i32, i32, !stream.resource<transient>, !stream.resource<transient>, index, index, index, index, index, index) -> ()
      "stream.cmd.dispatch"(%115, %120, %120, %118, %36, %35, %34, %37, %arg4, %arg2, %arg4, %85, %145, %85, %100, %100, %100, %85, %145, %85) {entry_point = @main_dispatch_47::@main_dispatch_47_depthwise_conv_2d_nhwc_hwc_1x14x14x576x3x3, operand_segment_sizes = array<i32: 4, 4, 3, 3, 3, 3>, resource_accesses = [1 : i32, 1 : i32, 2 : i32]} : (index, index, index, index, i32, i32, i32, i32, !stream.resource<transient>, !stream.resource<constant>, !stream.resource<transient>, index, index, index, index, index, index, index, index, index) -> ()
      "stream.cmd.dispatch"(%109, %125, %37, %77, %33, %32, %84, %arg4, %arg2, %arg4, %85, %145, %85, %100, %100, %100, %85, %145, %85) {entry_point = @main_dispatch_48::@main_dispatch_48_matmul_196x96x576, operand_segment_sizes = array<i32: 2, 5, 3, 3, 3, 3>, resource_accesses = [1 : i32, 1 : i32, 2 : i32]} : (index, index, i32, i32, i32, i32, i32, !stream.resource<transient>, !stream.resource<constant>, !stream.resource<transient>, index, index, index, index, index, index, index, index, index) -> ()
      "stream.cmd.concurrent"() ({
        "stream.cmd.dispatch"(%109, %118, %84, %31, %30, %29, %arg4, %arg2, %arg4, %85, %145, %85, %100, %100, %100, %85, %145, %85) {entry_point = @main_dispatch_45::@main_dispatch_45_matmul_196x576x96, operand_segment_sizes = array<i32: 2, 4, 3, 3, 3, 3>, resource_accesses = [1 : i32, 1 : i32, 2 : i32]} : (index, index, i32, i32, i32, i32, !stream.resource<transient>, !stream.resource<constant>, !stream.resource<transient>, index, index, index, index, index, index, index, index, index) -> ()
        "stream.cmd.fill"(%arg4, %85, %88, %134, %99) : (!stream.resource<transient>, index, index, index, i8) -> ()
        "stream.yield"() : () -> ()
      }) : () -> ()
      "stream.cmd.dispatch"(%120, %120, %118, %29, %28, %arg4, %arg4, %85, %85, %100, %100, %85, %85) {entry_point = @main_dispatch_46::@main_dispatch_46, operand_segment_sizes = array<i32: 3, 2, 2, 2, 2, 2>, resource_accesses = [1 : i32, 3 : i32]} : (index, index, index, i32, i32, !stream.resource<transient>, !stream.resource<transient>, index, index, index, index, index, index) -> ()
      "stream.cmd.dispatch"(%115, %120, %120, %118, %28, %27, %26, %29, %arg4, %arg2, %arg4, %85, %145, %85, %100, %100, %100, %85, %145, %85) {entry_point = @main_dispatch_47::@main_dispatch_47_depthwise_conv_2d_nhwc_hwc_1x14x14x576x3x3, operand_segment_sizes = array<i32: 4, 4, 3, 3, 3, 3>, resource_accesses = [1 : i32, 1 : i32, 2 : i32]} : (index, index, index, index, i32, i32, i32, i32, !stream.resource<transient>, !stream.resource<constant>, !stream.resource<transient>, index, index, index, index, index, index, index, index, index) -> ()
      "stream.cmd.dispatch"(%109, %125, %29, %84, %25, %24, %28, %arg4, %arg2, %arg4, %85, %145, %85, %100, %100, %100, %85, %145, %85) {entry_point = @main_dispatch_48::@main_dispatch_48_matmul_196x96x576, operand_segment_sizes = array<i32: 2, 5, 3, 3, 3, 3>, resource_accesses = [1 : i32, 1 : i32, 2 : i32]} : (index, index, i32, i32, i32, i32, i32, !stream.resource<transient>, !stream.resource<constant>, !stream.resource<transient>, index, index, index, index, index, index, index, index, index) -> ()
      "stream.cmd.concurrent"() ({
        "stream.cmd.dispatch"(%109, %118, %28, %23, %22, %84, %arg4, %arg2, %arg4, %85, %145, %85, %100, %100, %100, %85, %145, %85) {entry_point = @main_dispatch_45::@main_dispatch_45_matmul_196x576x96, operand_segment_sizes = array<i32: 2, 4, 3, 3, 3, 3>, resource_accesses = [1 : i32, 1 : i32, 2 : i32]} : (index, index, i32, i32, i32, i32, !stream.resource<transient>, !stream.resource<constant>, !stream.resource<transient>, index, index, index, index, index, index, index, index, index) -> ()
        "stream.cmd.fill"(%arg4, %85, %144, %133, %99) : (!stream.resource<transient>, index, index, index, i8) -> ()
        "stream.yield"() : () -> ()
      }) : () -> ()
      "stream.cmd.dispatch"(%120, %120, %118, %arg4, %arg4, %85, %85, %100, %100, %85, %85) {entry_point = @main_dispatch_54::@main_dispatch_54, operand_segment_sizes = array<i32: 3, 0, 2, 2, 2, 2>, resource_accesses = [1 : i32, 3 : i32]} : (index, index, index, !stream.resource<transient>, !stream.resource<transient>, index, index, index, index, index, index) -> ()
      "stream.cmd.dispatch"(%115, %117, %117, %118, %arg4, %arg2, %arg4, %85, %145, %85, %100, %100, %100, %85, %145, %85) {entry_point = @main_dispatch_55::@main_dispatch_55_depthwise_conv_2d_nhwc_hwc_1x7x7x576x3x3, operand_segment_sizes = array<i32: 4, 0, 3, 3, 3, 3>, resource_accesses = [1 : i32, 1 : i32, 2 : i32]} : (index, index, index, index, !stream.resource<transient>, !stream.resource<constant>, !stream.resource<transient>, index, index, index, index, index, index, index, index, index) -> ()
      "stream.cmd.dispatch"(%107, %106, %arg4, %arg2, %arg4, %85, %145, %85, %100, %100, %100, %85, %145, %85) {entry_point = @main_dispatch_56::@main_dispatch_56_matmul_49x160x576, operand_segment_sizes = array<i32: 2, 0, 3, 3, 3, 3>, resource_accesses = [1 : i32, 1 : i32, 2 : i32]} : (index, index, !stream.resource<transient>, !stream.resource<constant>, !stream.resource<transient>, index, index, index, index, index, index, index, index, index) -> ()
      "stream.cmd.concurrent"() ({
        "stream.cmd.dispatch"(%107, %116, %21, %20, %19, %18, %arg4, %arg2, %arg4, %85, %145, %85, %100, %100, %100, %85, %145, %85) {entry_point = @main_dispatch_57::@main_dispatch_57_matmul_49x960x160, operand_segment_sizes = array<i32: 2, 4, 3, 3, 3, 3>, resource_accesses = [1 : i32, 1 : i32, 2 : i32]} : (index, index, i32, i32, i32, i32, !stream.resource<transient>, !stream.resource<constant>, !stream.resource<transient>, index, index, index, index, index, index, index, index, index) -> ()
        "stream.cmd.fill"(%arg4, %85, %87, %132, %99) : (!stream.resource<transient>, index, index, index, i8) -> ()
        "stream.yield"() : () -> ()
      }) : () -> ()
      "stream.cmd.dispatch"(%117, %117, %116, %18, %17, %arg4, %arg4, %85, %85, %100, %100, %85, %85) {entry_point = @main_dispatch_58::@main_dispatch_58, operand_segment_sizes = array<i32: 3, 2, 2, 2, 2, 2>, resource_accesses = [1 : i32, 3 : i32]} : (index, index, index, i32, i32, !stream.resource<transient>, !stream.resource<transient>, index, index, index, index, index, index) -> ()
      "stream.cmd.dispatch"(%115, %117, %117, %116, %17, %16, %15, %18, %arg4, %arg2, %arg4, %85, %145, %85, %100, %100, %100, %85, %145, %85) {entry_point = @main_dispatch_59::@main_dispatch_59_depthwise_conv_2d_nhwc_hwc_1x7x7x960x3x3, operand_segment_sizes = array<i32: 4, 4, 3, 3, 3, 3>, resource_accesses = [1 : i32, 1 : i32, 2 : i32]} : (index, index, index, index, i32, i32, i32, i32, !stream.resource<transient>, !stream.resource<constant>, !stream.resource<transient>, index, index, index, index, index, index, index, index, index) -> ()
      "stream.cmd.dispatch"(%107, %106, %18, %21, %14, %13, %84, %arg4, %arg2, %arg4, %85, %145, %85, %100, %100, %100, %85, %145, %85) {entry_point = @main_dispatch_60::@main_dispatch_60_matmul_49x160x960, operand_segment_sizes = array<i32: 2, 5, 3, 3, 3, 3>, resource_accesses = [1 : i32, 1 : i32, 2 : i32]} : (index, index, i32, i32, i32, i32, i32, !stream.resource<transient>, !stream.resource<constant>, !stream.resource<transient>, index, index, index, index, index, index, index, index, index) -> ()
      "stream.cmd.concurrent"() ({
        "stream.cmd.dispatch"(%107, %116, %84, %12, %11, %10, %arg4, %arg2, %arg4, %85, %145, %85, %100, %100, %100, %85, %145, %85) {entry_point = @main_dispatch_57::@main_dispatch_57_matmul_49x960x160, operand_segment_sizes = array<i32: 2, 4, 3, 3, 3, 3>, resource_accesses = [1 : i32, 1 : i32, 2 : i32]} : (index, index, i32, i32, i32, i32, !stream.resource<transient>, !stream.resource<constant>, !stream.resource<transient>, index, index, index, index, index, index, index, index, index) -> ()
        "stream.cmd.fill"(%arg4, %85, %86, %132, %99) : (!stream.resource<transient>, index, index, index, i8) -> ()
        "stream.yield"() : () -> ()
      }) : () -> ()
      "stream.cmd.dispatch"(%117, %117, %116, %10, %9, %arg4, %arg4, %85, %85, %100, %100, %85, %85) {entry_point = @main_dispatch_58::@main_dispatch_58, operand_segment_sizes = array<i32: 3, 2, 2, 2, 2, 2>, resource_accesses = [1 : i32, 3 : i32]} : (index, index, index, i32, i32, !stream.resource<transient>, !stream.resource<transient>, index, index, index, index, index, index) -> ()
      "stream.cmd.dispatch"(%115, %117, %117, %116, %9, %8, %7, %10, %arg4, %arg2, %arg4, %85, %145, %85, %100, %100, %100, %85, %145, %85) {entry_point = @main_dispatch_59::@main_dispatch_59_depthwise_conv_2d_nhwc_hwc_1x7x7x960x3x3, operand_segment_sizes = array<i32: 4, 4, 3, 3, 3, 3>, resource_accesses = [1 : i32, 1 : i32, 2 : i32]} : (index, index, index, index, i32, i32, i32, i32, !stream.resource<transient>, !stream.resource<constant>, !stream.resource<transient>, index, index, index, index, index, index, index, index, index) -> ()
      "stream.cmd.dispatch"(%107, %106, %10, %84, %6, %5, %9, %arg4, %arg2, %arg4, %85, %145, %85, %100, %100, %100, %85, %145, %85) {entry_point = @main_dispatch_60::@main_dispatch_60_matmul_49x160x960, operand_segment_sizes = array<i32: 2, 5, 3, 3, 3, 3>, resource_accesses = [1 : i32, 1 : i32, 2 : i32]} : (index, index, i32, i32, i32, i32, i32, !stream.resource<transient>, !stream.resource<constant>, !stream.resource<transient>, index, index, index, index, index, index, index, index, index) -> ()
      "stream.cmd.concurrent"() ({
        "stream.cmd.dispatch"(%107, %116, %9, %4, %3, %84, %arg4, %arg2, %arg4, %85, %145, %85, %100, %100, %100, %85, %145, %85) {entry_point = @main_dispatch_57::@main_dispatch_57_matmul_49x960x160, operand_segment_sizes = array<i32: 2, 4, 3, 3, 3, 3>, resource_accesses = [1 : i32, 1 : i32, 2 : i32]} : (index, index, i32, i32, i32, i32, !stream.resource<transient>, !stream.resource<constant>, !stream.resource<transient>, index, index, index, index, index, index, index, index, index) -> ()
        "stream.cmd.fill"(%arg4, %85, %131, %132, %99) : (!stream.resource<transient>, index, index, index, i8) -> ()
        "stream.yield"() : () -> ()
      }) : () -> ()
      "stream.cmd.dispatch"(%117, %117, %116, %84, %2, %arg4, %arg4, %85, %85, %100, %100, %85, %85) {entry_point = @main_dispatch_58::@main_dispatch_58, operand_segment_sizes = array<i32: 3, 2, 2, 2, 2, 2>, resource_accesses = [1 : i32, 3 : i32]} : (index, index, index, i32, i32, !stream.resource<transient>, !stream.resource<transient>, index, index, index, index, index, index) -> ()
      "stream.cmd.dispatch"(%115, %117, %117, %116, %2, %1, %0, %84, %arg4, %arg2, %arg4, %85, %145, %85, %100, %100, %100, %85, %145, %85) {entry_point = @main_dispatch_59::@main_dispatch_59_depthwise_conv_2d_nhwc_hwc_1x7x7x960x3x3, operand_segment_sizes = array<i32: 4, 4, 3, 3, 3, 3>, resource_accesses = [1 : i32, 1 : i32, 2 : i32]} : (index, index, index, index, i32, i32, i32, i32, !stream.resource<transient>, !stream.resource<constant>, !stream.resource<transient>, index, index, index, index, index, index, index, index, index) -> ()
      "stream.cmd.dispatch"(%107, %105, %arg4, %arg2, %arg4, %85, %145, %85, %100, %100, %100, %85, %145, %85) {entry_point = @main_dispatch_68::@main_dispatch_68_matmul_49x320x960, operand_segment_sizes = array<i32: 2, 0, 3, 3, 3, 3>, resource_accesses = [1 : i32, 1 : i32, 2 : i32]} : (index, index, !stream.resource<transient>, !stream.resource<constant>, !stream.resource<transient>, index, index, index, index, index, index, index, index, index) -> ()
      "stream.cmd.dispatch"(%107, %104, %arg4, %arg2, %arg4, %85, %145, %85, %100, %100, %100, %85, %145, %85) {entry_point = @main_dispatch_69::@main_dispatch_69_matmul_49x1280x320, operand_segment_sizes = array<i32: 2, 0, 3, 3, 3, 3>, resource_accesses = [1 : i32, 1 : i32, 2 : i32]} : (index, index, !stream.resource<transient>, !stream.resource<constant>, !stream.resource<transient>, index, index, index, index, index, index, index, index, index) -> ()
      "stream.cmd.dispatch"(%115, %115, %115, %104, %arg4, %arg4, %85, %85, %100, %100, %85, %85) {entry_point = @main_dispatch_70::@main_dispatch_70_pooling_nhwc_sum_1x1x1x1280x7x7, operand_segment_sizes = array<i32: 4, 0, 2, 2, 2, 2>, resource_accesses = [1 : i32, 2 : i32]} : (index, index, index, index, !stream.resource<transient>, !stream.resource<transient>, index, index, index, index, index, index) -> ()
      "stream.cmd.dispatch"(%115, %103, %arg4, %arg2, %arg4, %85, %145, %85, %100, %100, %100, %85, %145, %85) {entry_point = @main_dispatch_71::@main_dispatch_71_matmul_1x1001x1280, operand_segment_sizes = array<i32: 2, 0, 3, 3, 3, 3>, resource_accesses = [1 : i32, 1 : i32, 2 : i32]} : (index, index, !stream.resource<transient>, !stream.resource<constant>, !stream.resource<transient>, index, index, index, index, index, index, index, index, index) -> ()
      "stream.cmd.dispatch"(%115, %arg4, %arg4, %85, %85, %100, %100, %85, %85) {entry_point = @main_dispatch_72::@main_dispatch_72_generic_1001, operand_segment_sizes = array<i32: 1, 0, 2, 2, 2, 2>, resource_accesses = [1 : i32, 2 : i32]} : (index, !stream.resource<transient>, !stream.resource<transient>, index, index, index, index, index, index) -> ()
      "stream.cmd.dispatch"(%115, %103, %arg4, %arg3, %85, %130, %100, %100, %85, %130) {entry_point = @main_dispatch_73::@main_dispatch_73_generic_1x1001, operand_segment_sizes = array<i32: 2, 0, 2, 2, 2, 2>, resource_accesses = [1 : i32, 2 : i32]} : (index, index, !stream.resource<transient>, !stream.resource<external>, index, index, index, index, index, index) -> ()
      "stream.yield"() : () -> ()
    }) {operand_segment_sizes = array<i32: 4, 4, 1>} : (!stream.resource<external>, !stream.resource<constant>, !stream.resource<external>, !stream.resource<transient>, index, index, index, index, !stream.timepoint) -> !stream.timepoint
    %152 = "stream.resource.dealloca"(%150#0, %85, %151) : (!stream.resource<transient>, index, !stream.timepoint) -> !stream.timepoint
    %153 = "stream.timepoint.await"(%149, %130, %152) {operand_segment_sizes = array<i32: 1, 1, 1>} : (!stream.resource<external>, index, !stream.timepoint) -> !stream.resource<external>
    %154 = "stream.tensor.export"(%153, %130) {source_encoding = tensor<1x1001xf32>} : (!stream.resource<external>, index) -> !hal.buffer_view
    "func.return"(%154) : (!hal.buffer_view) -> ()
  }) {arg_attrs = [{iree.identifier = "input"}], function_type = (!hal.buffer_view) -> !hal.buffer_view, iree.abi.stub, res_attrs = [{iree.identifier = "MobilenetV2/Predictions/Reshape_1"}], sym_name = "main"} : () -> ()
}) : () -> ()
